ALTEGRAD/LAB7_Influence_max/code/part1/model_lstm.pth.tar (torch_old, 616624 bytes, 18 tensors)

embedding.weight f4 [11, 128]
1.2269776 -0.1581504 0.53923374 -0.2626307 0.4501988 0.37520245 -1.3500365 -0.19663078
0.57816267 -1.9391309 0.20316625 -0.8084293 -0.910129 -1.133523 0.12823407 0.2602237
-0.38853204 0.5246568 0.2220507 0.26943314 -0.2275872 -0.54611784 -1.0740827 -0.82155114
-0.8400565 -0.5597727 -0.23675768 0.32327408 0.3006576 0.13189985 -1.7981782 0.7768269
-0.8679397 0.2682615 -0.559525 0.5295786 -0.06163112 -0.032918494 1.0063355 0.84346396
0.6891821 0.3033254 0.83612573 0.30326682 -1.7742728 0.38099733 0.36522183 0.03143918
0.093371674 0.34624073 -1.2251931 0.77114457 0.39592555 1.4509996 -0.066563316 0.46893755
-0.7181105 0.5299668 -0.074852176 -0.41365114 0.14595887 -1.2012514 -0.533222 0.2350395
0.4365016 0.34216982 0.13527675 0.4947277 0.5864216 -1.0005711 -0.33553335 0.41995674
0.007855036 -0.1309231 0.029938411 -1.6787034 -0.024790972 0.3556402 -0.141133 -2.3438475
1.4783628 -0.7029434 0.05969846 1.1775472 -1.3681813 0.98671263 1.530248 0.39116517
-0.11474589 -0.7881103 0.14949505 -0.3283684 0.18408039 0.16776994 0.11149574 0.85738987
0.11148155 -0.7618215 -0.009352725 -0.32067662 -0.32238126 -0.35803378 -0.51197106 -0.07737962
-0.109768264 0.40646598 0.75319284 0.8080456 0.23186167 -0.070355035 0.35510728 0.3862323
0.19303891 -0.27946636 -0.71997327 0.7760418 -0.321604 -0.38291737 0.5185329 0.67981195
-1.185344 0.09262714 0.3818303 0.14579351 -0.41810697 0.43567932 -0.04808094 -0.03736563
-2.1846838 -0.6445204 -0.3703853 0.9780672 -2.0685694 -0.11504755 1.7595143 0.37992942
0.36746693 -0.8823623 -0.4952658 1.0214361 0.62082237 -2.062682 0.7784678 0.39654663
-0.032043718 -0.6731103 -0.4983765 -1.8063002 -0.5742461 0.6135863 -1.4344442 -1.0430329
-0.54516304 -0.067764305 -1.6787906 1.4470116 -0.07567957 -0.20674971 1.6440351 1.2104683
1.0809517 0.5482149 -0.807563 -0.076269306 -0.2900951 0.2504846 0.85994893 -0.23148577
0.9322784 2.1080003 0.8572127 0.19485076 1.1282989 1.3806021 0.627021 0.1845139
-0.258355 -0.3214375 -0.7094111 -0.5701822 0.37097165 0.046309333 0.46648166 -1.2834373
-0.8645728 -1.1228987 -0.5603631 -0.38101402 0.3058555 -1.6674508 -0.6794894 2.0144923
-2.4953597 -0.01876596 0.77594525 2.277167 -0.43899155 0.0016467135 -0.6801178 -1.1956806
-1.4360845 0.97307587 2.07527 0.36281776 -0.77900994 0.9571603 -1.976612 1.9751331
0.2069158 -0.70576894 -0.514346 0.6075785 0.009980932 -0.68197364 -0.21005405 -0.792568
-0.39901197 -0.18137981 0.5189761 -1.9032745 0.9293452 0.85969144 -0.02712888 -0.141109
-0.38148734 0.5894194 -0.4592401 -0.9212506 -0.12000909 -1.4088961 -0.035142567 0.49603927
0.797535 -0.34214634 1.1817397 0.08254949 -0.69145477 -0.5870327 0.09375114 0.14313829
0.92145044 -1.0315915 -0.40260923 0.39251357 0.15555155 -1.9309545 -0.99059916 -0.45818517
-0.504807 0.087200075 -0.65784496 1.0616367 -0.18363039 1.5549884 0.98098314 0.25360686
00000000: 9a0d 9d3f 2ef2 21be 390b 0a3f 8877 86be
00000010: 7580 e63e 891a c03e ffcd acbf 9459 49be
00000020: 7802 143f 7135 f8bf d00a 503e 39f5 4ebf
00000030: 37fe 68bf 4817 91bf cb4f 033e 0a3c 853e
00000040: aced c6be e84f 063f 4261 633e 24f3 893e
00000050: 9e0c 69be 61ce 0bbf 8b7b 89bf 2d51 52bf
00000060: f10d 57bf 434d 0fbf 9b70 72be 2e84 a53e
00000070: cbef 993e c110 073e b42a e6bf 21de 463f
00000080: 4c31 5ebf 9259 893e 083d 0fbf 7792 073f
00000090: ea70 7cbd 8bd5 06bd 9acf 803f 41ed 573f
000000a0: 3d6e 303f 784d 9b3e 560c 563f ca45 9b3e
000000b0: 5f1b e3bf 1512 c33e 5bfe ba3e 5fc6 003d
000000c0: a639 bf3d 7746 b13e 21d3 9cbf bb69 453f
000000d0: c1b6 ca3e 5bba b93f 5952 88bd 9518 f03e
000000e0: 17d6 37bf e7ab 073f 194c 99bd 15ca d3be
000000f0: 3e76 153e 9bc2 99bf 3d81 08bf 32ae 703e
00000100: 237d df3e e230 af3e fd85 0a3e f34c fd3e
00000110: ba1f 163f b712 80bf 07cb abbe 9204 d73e
00000120: 69b2 003c b510 06be 6641 f53c c1df d6bf
00000130: 7016 cbbc 7916 b63e 2b85 10be 9901 16c0
00000140: fe3a bd3f 19f4 33bf 5f86 743d deb9 963f
00000150: 9120 afbf 3399 7c3f 2bdf c33f cd46 c83e
00000160: e5ff eabd 99c1 49bf 3b15 193e e71f a8be
00000170: 927f 3c3e e2cb 2b3e e157 e43d e77d 5b3f
00000180: 7050 e43d bc06 43bf 2c3c 19bc ba2f a4be
00000190: 280f a5be 3450 b7be 8910 03bf 3579 9ebd
000001a0: 2fce e0bd 4f1c d03e 3fd1 403f 14dc 4e3f
000001b0: 256d 6d3e 4d16 90bd 9fd0 b53e 3dc0 c53e
000001c0: feab 453e 3716 8fbe 2b50 38bf adaa 463f
000001d0: 48a9 a4be bf0d c4be 92be 043f 2808 2e3f
000001e0: 5ab9 97bf 4cb3 bd3d 437f c33e e54a 153e
000001f0: 1e12 d6be 5c11 df3e 85f0 44bd b40c 19bd
00000200: dcd1 0bc0 4aff 24bf 24a3 bdbe 9d62 7a3f
00000210: 7163 04c0 0d9e ebbd c437 e13f 1c86 c23e
00000220: a024 bc3e 7fe2 61bf 7b93 fdbe 6bbe 823f
00000230: 37ee 1e3f fb02 04c0 aa49 473f 2908 cb3e
00000240: 4640 03bd f550 2cbf 342b ffbe d834 e7bf
00000250: cb01 13bf fe13 1d3f de9b b7bf 1a82 85bf
00000260: ce8f 0bbf 03c8 8abd 9ce2 d6bf ad37 b93f
00000270: e4fd 9abd 32b6 53be be6f d23f a0f0 9a3f
00000280: a05c 8a3f d057 0c3f 73bc 4ebf 1533 9cbd
00000290: 5887 94be 843f 803e 9d25 5c3f 9b0a 6dbe
000002a0: cca9 6e3f 7ae9 0640 4b72 5b3f f586 473e
000002b0: 196c 903f 92b7 b03f 7384 203f 36f1 3c3e
000002c0: 1b47 84be 7593 a4be f79b 35bf 76f7 11bf
000002d0: ffef bd3e dbae 3d3d afd6 ee3e ac47 a4bf
000002e0: a554 5dbf 25bb 8fbf f573 0fbf 4514 c3be
000002f0: 1899 9c3e 076f d5bf 04f3 2dbf 71ed 0040
00000300: f9b3 1fc0 12bb 99bc 59a4 463f 1bbd 1140
00000310: 80c3 e0be 89d6 d73a 331c 2ebf 100c 99bf
00000320: 9ed1 b7bf 801b 793f 39d1 0440 40c3 b93e
00000330: 326d 47bf 7508 753f 9f01 fdbf 29d1 fc3f
00000340: bce1 533e 46ad 34bf 2eac 03bf 448a 1b3f
00000350: 1087 233c d395 2ebf 6918 57be bde5 4abf
00000360: 4c4b ccbe a1bb 39be 9edb 043f 809e f3bf
00000370: 91e9 6d3f bd14 5c3f 633d debc e17e 10be
00000380: 4f52 c3be 31e4 163f 8521 ebbe 14d7 6bbf
00000390: 53c7 f5bd b556 b4bf a7f1 0fbd dcf8 fd3e
000003a0: 412b 4c3f ce2d afbe 3f43 973f b50f a93d
000003b0: 2e03 31bf c647 16bf 9900 c03d d892 123e
000003c0: 2de4 6b3f 310b 84bf cc22 cebe 8af7 c83e
000003d0: e848 1f3e 8429 f7bf e897 7dbf 3f97 eabe
000003e0: 083b 01bf f495 b23d 8768 28bf b6e3 873f
000003f0: 9b09 3cbe dc09 c73f b621 7b3f c2d8 813e

lstm.weight_ih_l0 f4 [256, 128]
0.031991594 0.28663385 -0.02594592 0.0053892015 -0.011060547 0.086189546 -0.10013052 -0.17127068
-0.11424749 0.1010851 -0.21551079 -0.003783195 -0.056008596 0.18587165 0.0319918 0.022243952
0.17527568 0.0017061238 -0.086276285 0.14942077 -0.030744722 -0.11702485 -0.0150060505 0.12907967
-0.027018933 0.273011 0.06384936 0.0065508448 0.07689487 -0.16986091 -0.032253828 -0.053048983
0.013579293 -0.0143334605 0.07780694 -0.19399141 0.087803654 0.030111102 0.1353745 -0.071108535
-0.033692505 -0.11293058 -0.16503988 0.010241976 0.08532821 -0.17493342 -0.009618427 -0.044896204
0.09115833 -0.10268702 0.057482474 0.07527757 -0.13297364 -0.035599407 0.13222158 -0.116082475
-0.06819906 0.061589748 0.064848006 0.020582033 0.15790409 0.08399988 0.015562159 0.00846718
-0.10399088 -0.00522042 -0.21074818 -0.1546084 -0.014316596 -0.09760812 -0.03873383 -0.022347264
-0.070535265 -0.12644619 -0.0909623 0.036100112 0.105166435 -0.04231001 0.056706782 -0.10937467
-0.19095166 0.114985585 0.033439882 0.08295994 0.120187126 0.08465367 -0.13956763 0.0023626543
-0.0022933353 -0.025625601 0.039370153 0.115997374 -0.04106774 -0.048991427 0.0043507554 0.04721658
-0.14636627 0.14315782 0.0861616 0.094943 -0.07933053 0.11196 0.12431885 -0.06897775
-0.05547263 -0.19204469 0.06528917 0.014591647 0.13872775 0.052417785 -0.21393242 -0.07224928
0.04811709 0.22259367 -0.0035184876 0.020825718 -0.037853748 0.1528075 -0.051764637 -0.03587033
0.10873753 0.1097339 -0.15521097 -0.052939434 -0.0608211 -0.081872456 -0.013247285 0.11060241
0.05097897 -0.25779524 -0.11874772 -0.16875294 0.24517527 -0.060410086 0.11026086 -0.084695615
0.17863184 -0.11240301 0.014648448 -0.120534554 -0.023101358 0.09506854 0.066903055 0.001072008
-0.10579151 -0.08344249 0.2553548 -0.15113823 0.029582389 -0.026986487 -0.1967277 0.016760219
0.017086966 0.026362715 -0.255889 0.047949303 -0.1997176 0.24514587 -0.05652114 -0.033864208
0.009667322 0.19322544 0.13282481 0.09804281 -0.24297288 0.0066596637 -0.007072515 -0.06194178
0.14171687 0.102342084 0.1560745 0.100903034 -0.07338877 -0.04709101 0.09690741 0.19405945
-0.043706097 0.14080635 -0.011928417 0.007617556 0.07687462 0.07468001 -0.06464803 -0.03567963
-0.06044035 -0.10380417 0.024514783 0.20798509 -0.12953176 -0.24243352 -0.06583855 0.035563834
-0.03936404 -0.1547908 0.3033202 0.06149624 -0.015114365 -0.023809666 -0.091789566 0.1784436
-0.05841658 -0.07065418 0.27731743 -0.050832644 -0.09000237 -0.04792751 -0.0058099385 0.07333097
0.020713972 -0.13791156 0.059124235 -0.19527742 0.07954434 0.19081259 0.075980306 0.0502356
-0.18573166 0.034247175 0.07016163 -0.19608498 -0.02562315 -0.007441733 -0.1988091 0.106391676
0.24194859 -0.13161175 -0.006868765 -0.19611163 0.017601753 0.027417567 0.07015011 -0.05639176
-0.17714186 0.14260156 0.18067962 -0.06454693 -0.057980992 0.14560345 0.11159691 -0.10875003
-0.0693467 -0.08713797 -0.10711579 -0.12061938 0.13849415 -0.12565112 -0.056097094 -0.0037063707
-0.026298834 -0.030024247 0.07230834 -0.016076982 0.08262148 -0.05523417 0.10049933 -0.29308504
00000000: 9e09 033d acc1 923e 8a8c d4bc e697 b03b
00000010: 4c37 35bc 2584 b03d 3b11 cdbd 9561 2fbe
00000020: 97fa e9bd b405 cf3d dcae 5cbe 7bef 77bb
00000030: 4569 65bd 2355 3e3e d509 033d f338 b63c
00000040: 787b 333e 04a0 df3a 9fb1 b0bd c201 193e
00000050: 5bdc fbbc b9aa efbd f0db 75bc 762d 043e
00000060: cf56 ddbc 19c8 8b3e 74c3 823d 78a8 d63b
00000070: 0f7b 9d3d 05f0 2dbe 971c 04bd e449 59bd
00000080: af7b 5e3c e4d6 6abc 3f59 9f3d afa5 46be
00000090: 67d2 b33d 8fab f63c 9d9f 0a3e 5aa1 91bd
000000a0: 2701 0abd 2648 e7bd 3700 29be f6cd 273c
000000b0: 8ec0 ae3d bf21 33be 9b96 1dbc 15e5 37bd
000000c0: 38b1 ba3d 934d d2bd be72 6b3d 202b 9a3d
000000d0: 3e2a 08be afd0 11bd 1865 073e a6bc edbd
000000e0: f3ab 8bbd 8845 7c3d 08cf 843d a79b a83c
000000f0: 9cb1 213e 2108 ac3d 6df8 7e3c edb9 0a3c
00000100: 2cf9 d4bd 0f10 abbb 5fce 57be aa51 1ebe
00000110: 2890 6abc c4e6 c7bd 5da7 1ebd 9c11 b7bc
00000120: cb74 90bd 1c7b 01be 714a babd b6dd 133d
00000130: 8061 d73d 434d 2dbd 5f45 683d d4ff dfbd
00000140: d588 43be 907d eb3d 42f8 083d e7e6 a93d
00000150: ab24 f63d e75e ad3d d1ea 0ebe c3d6 1a3b
00000160: c84b 16bb c8ec d1bc 9942 213d 0890 ed3d
00000170: a636 28bd 3cab 48bd c890 8e3b 2c66 413d
00000180: 0ae1 15be f797 123e 7e75 b03d 7a71 c23d
00000190: 0b78 a2bd 494b e53d e29a fe3d 3544 8dbd
000001a0: 4537 63bd 5da7 44be 54b6 853d ce11 6f3c
000001b0: a60e 0e3e 08b4 563d 1a11 5bbe 6ef7 93bd
000001c0: 6d16 453d 98ef 633e 6d96 66bb b29a aa3c
000001d0: 880c 1bbd 9279 1c3e 2807 54bd c4ec 12bd
000001e0: c8b1 de3d 2bbc e03d a0ef 1ebe 05d7 58bd
000001f0: 8c1f 79bd bfac a7bd 240b 59bc 8483 e23d
00000200: 53cf 503d bdfd 83be 0132 f3bd 92cd 2cbe
00000210: 3a0f 7b3e 9170 77bd 72d0 e13d e574 adbd
00000220: 44eb 363e 8d33 e6bd 0b00 703c d2da f6bd
00000230: 0f3f bdbc 4bb3 c23d 7804 893d 9f82 8c3a
00000240: 38a9 d8bd e5e3 aabd ddbd 823e fbc3 1abe
00000250: c456 f23c c412 ddbc fc72 49be ba4c 893c
00000260: f7f9 8b3c 9ff6 d73c e203 83be 7d66 443d
00000270: c582 4cbe 8507 7b3e b682 67bd 32b5 0abd
00000280: b063 1e3c e4dc 453e 3a03 083e abca c83d
00000290: e2cd 78be 4f39 da3b 8ec0 e7bb aab6 7dbd
000002a0: 3a1e 113e ba98 d13d fed1 1f3e 40a6 ce3d
000002b0: da4c 96bd 81e2 40bd 6477 c63d 85b7 463e
000002c0: 2a05 33bd 8a2f 103e 686f 43bc b19c f93b
000002d0: 7170 9d3d d5f1 983d 3066 84bd ce24 12bd
000002e0: 4d90 77bd 4897 d4bd 3ad3 c83c 0bfa 543e
000002f0: f9a3 04be 7e40 78be 5dd6 86bd 62ab 113d
00000300: 303c 21bd 7b81 1ebe c94c 9b3e 7be3 7b3d
00000310: 3ea2 77bc 7d0c c3bc 2bfc bbbd ebb9 363e
00000320: 3946 6fbd 24b3 90bd 8dfc 8d3e e435 50bd
00000330: 2a53 b8bd a34f 44bd 4c61 bebb 8c2e 963d
00000340: 59b0 a93c b038 0dbe 412c 723d cef6 47be
00000350: 25e8 a23d 6064 433e 909b 9b3d d8c3 4d3d
00000360: 7130 3ebe c446 0c3d e7b0 8f3d 80ca 48be
00000370: a4e7 d1bc c8d9 f3bb 9d94 4bbe e1e3 d93d
00000380: 5fc1 773e 3bc5 06be 6113 e1bb 7dd1 48be
00000390: 8d31 903c ce9a e03c dcaa 8f3d 0cfb 66bd
000003a0: ad64 35be 2506 123e 1404 393e 2e31 84bd
000003b0: 7a7d 6dbd 1219 153e ec8c e43d 56b8 debd
000003c0: a505 8ebd 6475 b2bd 865f dbbd 4b07 f7bd
000003d0: 69d1 0d3e b0aa 00be 11c6 65bd 95e6 72bb
000003e0: a770 d7bc 69f5 f5bc 6516 943d e0b3 83bc
000003f0: 7335 a93d 3a3d 62bd 98d2 cd3d 3e0f 96be

lstm.weight_hh_l0 f4 [256, 64]
0.30382854 -0.1462561 -0.05798921 -0.055830717 0.08301074 0.4054832 0.24494787 0.46608806
-0.18630366 0.1804401 0.03774025 0.14392096 0.08363833 -0.06265546 -0.24962476 0.20099697
0.2529247 0.15861748 0.11463427 0.040378444 0.05815218 -0.1664539 0.054647923 -0.14700145
0.18713772 0.08985318 -0.20534573 0.28050128 0.08012154 0.20954806 0.15244329 -0.31966835
-0.5059215 0.042866297 0.049197115 0.022128563 -0.13878362 0.24420057 0.17818882 0.25231817
0.060557313 -0.026478156 0.026732452 0.29257634 -0.18400982 -0.018641667 0.034933634 -0.29507357
0.032721676 -0.09017302 -0.08097962 0.05811625 0.07979563 -0.068958506 0.14729232 0.046162467
0.10578455 0.08176926 0.12097181 -0.11617125 0.26145172 -0.22462998 -0.08162081 -0.10030843
0.12290774 0.34676898 0.13470243 0.047170404 -0.06123359 0.08097404 0.0023604636 0.19751973
-0.056164715 -0.03445797 -0.4329903 0.10073948 -0.5988115 -0.12639661 -0.07688473 0.005782142
0.35951027 0.08812474 -0.19472662 0.04604487 -0.032489218 0.4657269 -0.05939626 -0.084278844
-0.10521954 0.044171702 -0.2763021 0.087881975 0.0808788 -0.1268662 -0.058506373 -0.053189296
0.3100651 -0.092057854 0.030393582 -0.033775896 0.4353418 -0.37384582 -0.5660343 0.0066086785
-0.027527591 0.163663 0.07316133 0.120272145 0.13171676 -0.028685087 0.13293701 0.06859218
0.02532954 -0.19800432 0.1406428 0.131277 0.06514315 0.09535285 -0.1252794 -0.06998254
0.028049212 0.046568923 0.07238225 0.088717535 0.12745488 0.1481743 -0.06788996 0.20457438
0.058864247 -0.06373946 0.25088775 -0.05526689 -0.1652612 0.030397743 0.011053996 -0.105803005
-0.22246237 -0.1635204 -0.11854151 0.1633884 0.16816023 -0.29930258 -0.10214192 0.13336842
0.22584498 0.06406476 -0.33613676 -0.021273304 0.026715316 0.42452207 -0.051442236 -0.14538917
-0.111384615 0.067743346 0.10259627 0.27598903 -0.089850314 0.09617456 0.03699792 -0.14560002
-0.006814205 -0.10844651 0.12645511 -0.12184556 0.05656576 0.26829773 -0.20476809 0.15631147
0.18415633 0.03376762 0.0031136326 0.2062276 -0.008851037 0.057950575 0.26950765 -0.25944832
0.14048006 -0.08204968 0.14753766 0.3097183 0.0870615 -0.24719118 -0.015995428 -0.06767258
0.14459649 0.20172931 0.16425265 0.02900542 -0.11253667 0.25860783 -0.10248323 0.10329692
0.07225768 0.0040250705 0.020399544 0.007695196 -0.03451239 0.023051856 0.033197008 -0.076078705
-0.07341704 0.037886534 0.000580666 -0.018619446 -0.0010536177 -0.02876665 0.04001219 -0.022287397
0.026515983 0.05298767 0.011033118 -0.021448 -0.006980233 -0.050347153 -0.0385976 -0.03357048
0.04341215 -0.10442667 -0.022527711 0.017991656 -0.04658352 -0.0068982663 0.012954596 -0.013977455
0.04387308 -0.004431656 -0.0067899334 0.11766149 -0.061708286 0.0029389714 -0.010926737 0.046411037
0.0681328 0.009111918 0.12982003 -0.03343363 -0.039530937 0.006399527 0.035004262 -0.009863666
0.030602798 0.049434725 0.058111146 -0.06456687 -0.06390267 -0.06683763 -0.051611587 -0.10644722
-0.097734645 0.07433056 0.100870535 0.030767996 -0.014649985 0.010208438 -0.0041189273 0.027880957
00000000: 6a8f 9b3e 29c4 15be 1886 6dbd c0ae 64bd
00000010: 8901 aa3d 7e9b cf3e 9dd3 7a3e 18a3 ee3e
00000020: 63c6 3ebe 4ac5 383e 8595 1a3d 0460 133e
00000030: 934a ab3d 8151 80bd a29d 7fbe 26d2 4d3e
00000040: 597f 813e 9f6c 223e 5fc5 ea3d de63 253d
00000050: fb30 6e3d e472 2abe 80d6 5f3d 8c87 16be
00000060: 08a1 3f3e f204 b83d 2746 52be dd9d 8f3e
00000070: c316 a43d c493 563e 181a 1c3e 92ab a3be
00000080: 1284 01bf 9294 2f3d ea82 493d f646 b53c
00000090: 4b1d 0ebe b70f 7a3e 2177 363e d92f 813e
000000a0: f20a 783d b8e8 d8bc 04fe da3c 91cc 953e
000000b0: 126d 3cbe 69b6 98bc 9216 0f3d e213 97be
000000c0: 2a07 063d a2ac b8bd a5d8 a5bd 4e0b 6e3d
000000d0: e46b a33d 1e3a 8dbd ccd3 163e db14 3d3d
000000e0: 92a5 d83d a476 a73d 11c0 f73d 31eb edbd
000000f0: 00dd 853e 6705 66be d028 a7bd 826e cdbd
00000100: 0eb7 fb3d b48b b13e 6fef 093e c135 413d
00000110: 13d0 7abd b8d5 a53d 02b2 1a3b 9d42 4a3e
00000120: f90c 66bd cd23 0dbd e8b0 ddbe 8050 ce3d
00000130: b64b 19bf 1d6e 01be be75 9dbd 1f78 bd3b
00000140: bb11 b83e be7a b43d 6a66 47be 8c99 3c3d
00000150: 6a13 05bd c273 ee3e 7e49 73bd 639a acbd
00000160: 587d d7bd 63ed 343d 7877 8dbe 77fb b33d
00000170: c9a3 a53d 37e9 01be 61a4 6fbd 05dd 59bd
00000180: dac0 9e3e d488 bcbd f6fb f83c 9858 0abd
00000190: 1fe5 de3e b868 bfbe a0e7 10bf 9d8d d83b
000001a0: 8b81 e1bc 4697 273e 9bd5 953d 3e51 f63d
000001b0: c2e0 063e fdfc eabc a420 083e 0f7a 8c3d
000001c0: e57f cf3c a5c1 4abe ab04 103e 7a6d 063e
000001d0: c669 853d 5b48 c33d 3e49 00be 0253 8fbd
000001e0: 76c7 e53c 0ebf 3e3d 253d 943d 8ab1 b53d
000001f0: 8883 023e 01bb 173e e409 8bbd f27b 513e
00000200: a31b 713d d689 82bd 5c74 803e 895f 62bd
00000210: 3b3a 29be b004 f93c d21b 353c 3faf d8bd
00000220: 2dcd 63be e471 27be e4c5 f2bd 4a4f 273e
00000230: 3232 2c3e 303e 99be c82f d1bd bb91 083e
00000240: e843 673e 6334 833d 1e1a acbe 5a45 aebc
00000250: 14da da3c f55a d93e 18b5 52bd e6e0 14be
00000260: 9e1d e4bd 06bd 8a3d fe1d d23d 6f4e 8d3e
00000270: 7103 b8bd 2bf7 c43d 228b 173d 2c18 15be
00000280: b249 dfbb 3419 debd 737d 013e 2a8a f9bd
00000290: 80b1 673d 525e 893e baae 51be 1d10 203e
000002a0: 7a93 3c3e ea4f 0a3d 160e 4c3b 542d 533e
000002b0: f103 11bc 955d 6d3d e8fc 893e 69d6 84be
000002c0: 01da 0f3e aa09 a8bd 1d14 173e 6693 9e3e
000002d0: 4d4d b23d af1f 7dbe d808 83bc ec97 8abd
000002e0: 1a11 143e 2192 4e3e d931 283e c69c ed3c
000002f0: a079 e6bd 3f68 843e bae2 d1bd 568d d33d
00000300: d6fb 933d bde4 833b f21c a73c fc27 fc3b
00000310: dd5c 0dbd 3fd7 bc3c 96f9 073d 27cf 9bbd
00000320: ac5b 96bd e92e 1b3d d637 183a cf87 98bc
00000330: 8b19 8aba 0aa8 ebbc d2e3 233d 0f94 b6bc
00000340: 0c38 d93c 9909 593d 40c4 343c b7b3 afbc
00000350: 70ba e4bb d138 4ebd 8418 1ebd 3381 09bd
00000360: f0d0 313d a6dd d5bd 098c b8bc 3d63 933c
00000370: 5cce 3ebd da0a e2bb 843f 543c b201 65bc
00000380: 42b4 333d 6d37 91bb 177e debb 82f8 f03d
00000390: d4c1 7cbd c29b 403b 0f06 33bc 8019 3e3d
000003a0: 3689 8b3d 274a 153c 8bef 043e b4f1 08bd
000003b0: 31eb 21bd 20b3 d13b a160 0f3d 379b 21bc
000003c0: b8b2 fa3c 117c 4a3d f405 6e3d a33b 84bd
000003d0: 67df 82bd 2be2 88bd ac66 53bd 0001 dabd
000003e0: 1a29 c8bd 9f3a 983d 3695 ce3d 2a0d fc3c
000003f0: 7e06 70bc 4b41 273c 11f8 86bb 9b66 e43c

lstm.bias_ih_l0 f4 [256]
-0.051771924 -0.06922965 0.115484335 0.12340942 -0.10971418 -0.06831623 -0.033631235 -0.03919587
-0.09964639 0.044228245 -0.040439595 -0.09864652 -0.338273 0.13008243 -0.12752542 0.14758761
-0.2366987 -0.0289136 0.060988788 0.04380797 0.06713816 -0.1531351 -0.26807886 0.21668676
-0.026432322 0.14884424 -0.12723197 -0.096043274 0.07297781 -0.055359095 -0.056616608 -0.1066921
-0.16214237 -0.06264731 -0.015783593 -0.038972564 -0.26253712 -0.24652353 -0.16705778 0.20347512
-0.000618086 -0.14055456 0.08417266 -0.09356286 0.07272495 0.039509393 0.061023455 -0.045576856
-0.11589142 -0.1973905 0.08467064 -0.092997275 -0.16376618 0.07806399 -0.20760097 0.13019475
0.08314115 -0.08462768 0.2208924 0.11224338 0.06270442 -0.09255098 0.049654517 -0.010526189
0.029077554 0.16544777 -0.06514405 0.35044402 0.43660274 -0.06308599 0.2557373 0.018966066
0.139614 0.23528963 -0.100639075 0.2153698 0.055556584 -0.03415105 0.06789476 0.37964618
0.012043275 0.22016022 -0.06946795 0.083466046 0.16982046 -0.061268415 -0.11763638 0.090073936
0.16620101 0.28253773 -0.021937514 0.3180139 0.2900088 0.18442364 0.2736245 0.21026221
-0.24798302 0.31148186 0.0958062 0.19114092 -0.14755832 -0.1433992 0.07416444 0.09709058
0.36766827 -0.08935329 -0.015918726 0.01963692 -0.06266367 0.21239245 0.24288806 0.359611
0.14701156 0.12332792 0.2815214 0.35365996 0.06391402 0.21964581 0.26261365 -0.10403543
0.13682325 -0.061450295 -0.04714422 0.2695302 0.25031164 0.072396055 -0.03657661 -0.089800335
-0.05749395 -0.03322205 0.30544314 -0.057960384 -0.10851309 0.06887207 0.18355805 -0.059049968
-0.13905703 -0.072001375 -0.010319967 0.23447399 -0.076231144 -0.13729349 -0.08042802 0.05502047
-0.046032887 0.029653924 0.031158201 -0.23305467 0.18776906 -0.050074294 -0.015007809 -0.20830807
-0.016729066 0.14839809 -0.12444875 0.15888768 -0.21809192 0.17256406 -0.043491133 0.059162512
-0.08764213 -0.08277656 0.13747208 -0.2254386 0.07996327 0.057328895 0.14380541 -0.023227105
0.028119108 -0.091189995 -0.028473616 0.14613467 -0.04987898 0.26542842 -0.07119654 -0.01975068
0.1233698 0.021932557 0.13445915 0.22889487 -0.08833236 -0.04788731 0.008423063 0.23317644
0.30278096 0.059007578 0.22789638 0.11982379 -0.103559166 0.07526882 -0.012414549 -0.06251735
-0.109752774 0.4256545 0.016926475 0.00880907 0.25790405 -0.17905767 0.012483845 -0.00874535
-0.06487056 0.36199173 -0.10075804 -0.020768693 -0.17032905 -0.13890207 -0.044842687 0.08780222
-0.09327318 0.27536866 -0.23820342 0.052985106 0.08262155 -0.038353056 0.030758744 0.08380002
-0.13035126 -0.10298939 0.004007063 0.031664982 0.016732825 0.013787574 -0.04180351 -0.04053162
0.056422334 0.116931215 -0.02763103 0.3412169 -0.12714991 0.03545155 -0.09563797 -0.02352065
0.044922613 0.07962425 -0.04457921 -0.029067596 0.13592361 0.05842909 -0.17836154 0.049211703
0.08624519 -0.1253031 0.3184664 0.022483854 0.04179385 0.12269163 0.0007426318 -0.08048803
0.093631625 -0.08822567 0.029817095 0.36656192 -0.123427704 -0.09218806 -0.10263316 -0.03651629
00000000: cc0e 54bd 46c8 8dbd 0d83 ec3d 14be fc3d
00000010: d4b1 e0bd 61e9 8bbd e8c0 09bd d98b 20bd
00000020: 6813 ccbd ad28 353d fda3 25bd 3007 cabd
00000030: 1e32 adbe 5434 053e 0696 02be 3521 173e
00000040: 2561 72be 37dc ecbc 61cf 793d fc6f 333d
00000050: bb7f 893d 73cf 1cbe a241 89be 22e3 5d3e
00000060: 9988 d8bc a06a 183e 1949 02be 56b2 c4bd
00000070: 6475 953d 38c0 62bd d1e6 67bd 6381 dabd
00000080: a608 26be 3c4d 80bd 984c 81bc b2a1 1fbd
00000090: 446b 86be aa70 7cbe 3211 2bbe c85b 503e
000000a0: 0d07 22ba 89ed 0fbe b762 ac3d e29d bfbd
000000b0: d2f0 943d 9ad4 213d bbf3 793d ccae 3abd
000000c0: 7b58 edbd bc20 4abe cd67 ad3d 5b75 bebd
000000d0: 52b2 27be 03e0 9f3d 5995 54be c651 053e
000000e0: e845 aa3d 4751 adbd 9e31 623e dbdf e53d
000000f0: 2d6b 803d 5e8b bdbd 8962 4b3d 0976 2cbc
00000100: 0d34 ee3c 246b 293e 3e6a 85bd 666d b33e
00000110: 658a df3e 3a33 81bd 00f0 823e b95e 9b3c
00000120: f9f6 0e3e c4ef 703e dc1b cebd e789 5c3e
00000130: 4d8f 633d f9e1 0bbd 680c 8b3d fc60 c23e
00000140: 2851 453c ae71 613e 3645 8ebd 3ff0 aa3d
00000150: 6ae5 2d3e 97f4 7abd 58eb f0bd af78 b83d
00000160: 9930 2a3e c9a8 903e 4db6 b3bc b8d2 a23e
00000170: 097c 943e 8dd9 3c3e 8318 8c3e fa4e 573e
00000180: 43ef 7dbe 8d7a 9f3e 0a36 c43d 72ba 433e
00000190: 8719 17be 3dd7 12be 87e3 973d 6dd7 c63d
000001a0: 043f bc3e dcfe b6bd fd67 82bc 9bdd a03c
000001b0: cf55 80bd 687d 593e a6b7 783e ef1e b83e
000001c0: 338a 163e 5993 fc3d 9323 903e eb12 b53e
000001d0: 5be5 823d d5ea 603e 4c75 863e 8710 d5bd
000001e0: 651b 0c3e 4eb3 7bbd 4c1a 41bd ddff 893e
000001f0: d928 803e 6244 943d 5bd1 15bd 3de9 b7bd
00000200: c77e 6bbd d813 08bd 0b63 9c3e de67 6dbd
00000210: 1c3c debd cd0c 8d3d a4f6 3b3e 61de 71bd
00000220: f764 0ebe 7575 93bd 1415 29bc f319 703e
00000230: 131f 9cbd aa96 0cbe 72b7 a4bd 255d 613d
00000240: fb8c 3cbd c9ec f23c 7c3f ff3c e2a5 6ebe
00000250: 8846 403e b41a 4dbd 50e3 75bc b64e 55be
00000260: 650b 89bc abf5 173e fcde febd 74b3 223e
00000270: 7d53 5fbe a2b4 303e c223 32bd 6454 723d
00000280: b87d b3bd c286 a9bd 7bc5 0c3e 60d9 66be
00000290: c8c3 a33d b4d1 6a3d ba41 133e c546 bebc
000002a0: 0b5a e63c d2c1 babd 8041 e9bc 54a4 153e
000002b0: e74d 4cbd 3ce6 873e 7ecf 91bd 2ecc a1bc
000002c0: 4ea9 fc3d e8ab b33c a9af 093e 6b63 6a3e
000002d0: 99e7 b4bd 7c25 44bd e300 0a3c cec5 6e3e
000002e0: 1b06 9b3e eeb1 713d ab5d 693e 2d66 f53d
000002f0: d416 d4bd 8a26 9a3d 6466 4bbc 1909 80bd
00000300: 10c6 e0bd 63ef d93e 64a9 8a3c eb53 103c
00000310: 000c 843e e55a 37be 0b89 4c3c a848 0fbc
00000320: dbda 84bd fb56 b93e 3b5a cebd 1b23 aabc
00000330: bd6a 2ebe 583c 0ebe f7ac 37bd a6d1 b33d
00000340: 0206 bfbd 1ffd 8c3e 99eb 73be e906 593d
00000350: 7d35 a93d 1818 1dbd c3f9 fb3c 589f ab3d
00000360: cd7a 05be 1aec d2bd ae4d 833b 24b3 013d
00000370: 4713 893c 47e5 613c 283a 2bbd 7c04 26bd
00000380: 1b1b 673d a279 ef3d 785a e2bc fbb3 ae3e
00000390: 9633 02be a535 113d d7dd c3bd 61ae c0bc
000003a0: c600 383d 0a12 a33d b198 36bd 2b1f eebc
000003b0: 8f2f 0b3e 5753 6f3d 68a4 36be 3692 493d
000003c0: 51a1 b03d 754f 00be 070e a33e 0f30 b83c
000003d0: 0730 2b3d c045 fb3d 2dad 423a e9d6 a4bd
000003e0: f0c1 bf3d a9af b4bd fb42 f43c 01ae bb3e
000003f0: aac7 fcbd 18cd bcbd 5631 d2bd 1b92 15bd

lstm.bias_hh_l0 f4 [256]
0.12202794 -0.08527807 0.008476778 0.012427246 0.060973678 0.053017356 0.0067791846 0.07626479
-0.04740881 0.09095208 -0.24994992 -0.034608357 -0.18922433 -0.012793948 -0.10075461 0.07542786
-0.20967782 -0.12796134 -0.14777409 -0.11475223 0.0767075 -0.16585681 -0.1890747 0.31808093
-0.039362896 0.17141707 -0.27259576 -0.1370019 0.012230011 0.10036872 -0.0004757028 -0.080436364
-0.12999119 -0.15314753 -0.14881645 0.013149057 -0.11293267 -0.15520233 -0.23757221 0.19390641
-0.005418491 -0.25781763 0.07814222 0.027711485 0.06621907 -0.04159641 0.05156064 0.028829755
-0.20800102 -0.15499923 0.07286292 -0.2549413 0.020235533 -0.06903065 -0.24156651 -0.091001265
0.11039259 -0.011428213 0.28274566 0.12904921 -0.1253358 -0.16546667 -0.10105916 -0.01008844
0.0065770894 0.28443778 -0.12080027 0.3908528 0.2420966 -0.05594906 0.25683638 0.11268226
0.13705814 0.14957757 -0.18654227 0.08034347 -0.038567062 -0.048404448 0.013539808 0.39185748
-0.18339291 0.22016302 -0.10986458 0.09384621 0.15883727 -0.11900258 -0.06490826 -0.010281123
0.22144611 0.104904175 -0.03688459 0.27265975 0.2360326 0.115977414 0.098414004 0.28998467
-0.052299313 0.29444337 0.16902906 0.16404113 -0.14915816 -0.19538404 -0.15372893 -0.061811432
0.28128475 0.044506207 -0.17320384 0.17364109 -0.07324446 0.31732798 0.30763054 0.35767406
0.2222932 0.18253872 0.22742407 0.18047272 0.05922972 0.18529172 0.084530815 0.02233071
0.21456839 0.08659827 -0.037154548 0.43010318 0.0932273 0.038917057 -0.09902828 0.005872179
-0.11009363 -0.13208148 0.32654643 0.15373266 -0.1274805 0.07554249 0.1518216 -0.13915758
-0.28761265 0.016880048 -0.0029853866 0.1726794 0.010970122 -0.28494206 -0.1174019 -0.07202397
0.017868621 0.06704756 -0.033063725 -0.08568013 0.31863248 -0.011757274 -0.042115312 -0.3370833
-0.031714022 0.3369342 -0.067361504 0.13276225 -0.25521016 0.051626015 0.04815983 0.0025733316
0.09101864 -0.00030002114 0.2155159 -0.18514502 -0.063938715 0.22347805 -0.026526371 0.076237574
0.096281655 0.010151932 0.044664208 0.09119373 -0.04634212 0.14582649 0.0057559656 0.14983456
0.2004793 0.029869115 0.20461309 0.084357694 0.11132729 -0.13715376 0.055174265 0.24966726
0.32300913 0.16778229 0.29216787 -0.08033363 -0.25918266 0.16874959 0.050081886 0.13012548
0.022207743 0.2100158 -0.17003766 0.062171392 0.27536717 -0.1081458 0.039798483 -0.025791183
-0.13953021 0.43457574 -0.28092661 0.023374612 -0.17924961 0.048866946 0.014515246 0.02444292
-0.081766285 0.26892212 -0.23380639 -0.13447401 0.08546822 0.035788737 0.124376096 0.07929777
-0.01591182 0.025164451 0.12995154 -0.035063077 -0.13746072 0.1406395 -0.08508258 -0.0256361
0.0032804345 -0.030092536 0.06282225 0.30838102 -0.0068049952 0.013622884 -0.21829739 0.00443613
0.07736479 0.09469966 0.045947067 -0.12082942 -0.069229774 0.07351738 -0.07502219 0.0706716
0.112361975 0.050758973 0.2717079 -0.12997992 0.1790743 0.09526984 0.03866677 -0.06463914
0.08362621 -0.027516866 0.05030314 0.263836 0.058561333 0.031522222 -0.08751075 -0.19497769
00000000: c9e9 f93d 45a6 aebd 2fe2 0a3c a69b 4b3c
00000010: 89bf 793d ba28 593d ec23 de3b b730 9c3d
00000020: be2f 42bd 1645 ba3d dff2 7fbe 7ec1 0dbd
00000030: 06c4 41be b59d 51bc 6f58 cebd ec79 9a3d
00000040: c8b5 56be 4c08 03be 1752 17be 3803 ebbd
00000050: d218 9d3d 5ed6 29be cc9c 41be 81db a23e
00000060: fd3a 21bd f587 2f3e ac91 8bbe 3a4a 0cbe
00000070: 6260 483c 1e8e cd3d c067 f9b9 d2bb a4bd
00000080: 691c 05be b5d2 1cbe 5763 18be 246f 573c
00000090: 3e49 e7bd 5ced 1ebe 2146 73be 678f 463e
000000a0: 998d b1bb ac00 84be 0709 a03d 3203 e33c
000000b0: dd9d 873d ff60 2abd 4031 533d 612c ec3c
000000c0: 38fe 54be 1eb8 1ebe 2839 953d ab87 82be
000000d0: fdc4 a53c f15f 8dbd 365d 77be df5e babd
000000e0: 8315 e23d 663d 3bbc 0ac4 903e 7a25 043e
000000f0: 0758 00be 1870 29be 1bf8 cebd fc49 25bc
00000100: a084 d73b d4a1 913e 2266 f7bd dc1d c83e
00000110: 2ce8 773e d72a 65bd 0f80 833e f5c5 e63d
00000120: f858 0c3e dd2a 193e f004 3fbe 1e8b a43d
00000130: 7ff8 1dbd be43 46bd 12d6 5d3c 8ba1 c83e
00000140: 5acb 3bbe 6a72 613e ae00 e1bd 7132 c03d
00000150: 3da6 223e a0b7 f3bd 9fee 84bd 2872 28bc
00000160: c5c2 623e 00d8 d63d 4c14 17bd 0f9a 8b3e
00000170: 88b2 713e 9185 ed3d 488d c93d df78 943e
00000180: ce37 56bd 48c1 963e f415 2d3e 66fa 273e
00000190: ebbc 18be c112 48be 1e6b 1dbe fc2d 7dbd
000001a0: 8e04 903e 244c 363d 595c 31be f8ce 313e
000001b0: 3101 96bd d078 a23e c081 9d3e 0e21 b73e
000001c0: d4a0 633e 6eeb 3a3e dbe1 683e d7cd 383e
000001d0: dd9a 723d 1dbd 3d3e 7e1e ad3d e5ee b63c
000001e0: d1b7 5b3e 6f5a b13d 5e2f 18bd 7c36 dc3e
000001f0: f4ed be3d 7e67 1f3d 57cf cabd 686b c03b
00000200: c578 e1bd 5e40 07be 1831 a73e 186c 1d3e
00000210: 408a 02be 05b6 9a3d 1f77 1b3e 537f 0ebe
00000220: f741 93be 0748 8a3c 7aa6 43bb ded2 303e
00000230: 07bc 333c ede3 91be 6870 f0bd 4e81 93bd
00000240: 3761 923c 3b50 893d d46d 07bd 1079 afbd
00000250: cc23 a33e 95a1 40bc 1b81 2cbd 2f96 acbe
00000260: 90e6 01bd a482 ac3e d4f4 89bd d4f2 073e
00000270: e8aa 82be cd75 533d 3e43 453d 57a5 283b
00000280: fb67 ba3d 284c 9db9 33b0 5c3e a896 3dbe
00000290: 4df2 82bd 6ed7 643e d54d d9bc 7222 9c3d
000002a0: 512f c53d 4a54 263c d1f1 363d c7c3 ba3d
000002b0: 3cd1 3dbd 8a53 153e 8a9c bc3b 3b6e 193e
000002c0: 724a 4d3e 13b0 f43c 1886 513e bac3 ac3d
000002d0: 90ff e33d 0972 0cbe 69fe 613d c6a8 7f3e
000002e0: 7461 a53e 1fcf 2b3e 0797 953e f585 a4bd
000002f0: 97b3 84be b1cc 2c3e aa22 4d3d 9d3f 053e
00000300: 03ed b53c 620e 573e 5a1e 2ebe 6ea7 7e3d
00000310: edfc 8c3e 8c7b ddbd bc03 233d 0848 d3bc
00000320: 02e1 0ebe b680 de3e 9dd5 8fbe 1d7c bf3c
00000330: 368d 37be b528 483d 5bd1 6d3c 853c c83c
00000340: 1575 a7bd 29b0 893e f16a 6fbe 8eb3 09be
00000350: f609 af3d 3697 123d e5b8 fe3d df66 a23d
00000360: 8159 82bc ae25 ce3c 0412 053e 4d9e 0fbd
00000370: 81c2 0cbe cd03 103e c73f aebd cc02 d2bc
00000380: 8ffc 563b 9f84 f6bc f4a8 803d 1ee4 9d3e
00000390: 70fc debb 8432 5f3c 5a89 5fbe f55c 913b
000003a0: 6e71 9e3d e5f1 c13d fe32 3c3d 6a75 f7bd
000003b0: 57c8 8dbd 4890 963d 3ca5 99bd 46bc 903d
000003c0: 091e e63d a4e8 4f3d 4c1d 8b3e 7519 05be
000003d0: 415f 373e d51c c33d 0c61 1e3d 8761 84bd
000003e0: 3844 ab3d 0d6b e1bc aa0a 4e3d 8315 873e
000003f0: 02de 6f3d 721d 013d d638 b3bd 3ba8 47be

fc.weight f4 [1, 64]
-0.882161 -0.860299 1.0247921 1.1960416 -0.92482495 0.8876417 0.8725356 -0.87267053
-0.86792034 -0.9371693 -1.81028 0.945412 -2.4241877 -1.0783005 -0.8367762 -1.0692073
1.0115545 0.9625121 -1.2304484 -0.99040955 0.87414026 1.3862594 -1.3625008 -0.89037013
-1.0508789 0.9438679 -1.9840428 0.9206367 -0.92688 0.90150595 0.8307262 -0.9218528
0.8414945 -0.829414 0.9011636 -0.91788125 1.5605671 -1.1802509 -1.6083974 0.9447791
-0.9401275 1.191514 -0.8737324 0.9005608 -0.88704 0.85930073 0.97300065 -0.87442726
0.8903146 -0.9699887 1.0802233 1.1042261 1.0061826 -0.9441606 0.8022447 0.91783667
0.8150189 0.95607734 0.87597835 0.8852871 -0.99300843 1.1269876 -0.91687644 1.1534925
00000000: 4ed5 61bf 8e3c 5cbf 632c 833f e417 993f
00000010: 54c1 6cbf 7d3c 633f 7e5e 5f3f 5667 5fbf
00000020: 0730 5ebf 54ea 6fbf 41b7 e7bf 8506 723f
00000030: e425 1bc0 c005 8abf f736 56bf c9db 88bf
00000040: 9e7a 813f 3167 763f 557f 9dbf 7b8b 7dbf
00000050: a8c7 5f3f f370 b13f 6d66 aebf 4cef 63bf
00000060: 3383 86bf 54a1 713f 1df5 fdbf d9ae 6b3f
00000070: 0248 6dbf 18c9 663f 79aa 543f 8cfe 6bbf
00000080: 2f6c 573f 7a54 54bf a8b2 663f 44fa 6abf
00000090: aac0 c73f 7612 97bf f7df cdbf 0bdd 713f
000000a0: 32ac 70bf 8883 983f edac 5fbf 278b 663f
000000b0: 0e15 63bf 22fb 5b3f 9216 793f 77da 5fbf
000000c0: a8eb 633f 2e51 78bf c244 8a3f 4857 8d3f
000000d0: 97ca 803f 82b4 71bf e95f 4d3f 58f7 6a3f
000000e0: 14a5 503f 7cc1 743f 1e40 603f 2da2 623f
000000f0: cd35 7ebf 2141 903f 6ab8 6abf a4a5 933f

exp_avg f4 [11, 128]
0.0058797346 -0.0031398463 -0.0015494734 0.011299748 -0.0050391452 0.0007482864 0.0013769403 -0.0033319516
-0.0018931932 0.0006195839 -0.0012493494 -0.009553447 -0.0013305572 -0.00654165 0.0028545784 -0.0030483014
-0.0009875986 -0.007106162 -0.0046208296 -0.006678789 -0.011255789 0.0029723465 -0.0015902644 -0.0057658437
-0.0027408334 -0.0066292905 0.00382359 0.010451327 -0.0010875261 -0.0061365836 -0.0043379725 0.0062518134
-0.005421839 0.0053836354 0.0010259616 0.008976952 -0.0004012618 -0.001629816 -0.0043300684 -0.00031418394
0.0030722779 0.007287631 3.448465e-05 -0.00088933465 -0.0030632338 0.008215935 0.009145153 0.0050770775
-0.0059556607 0.007787359 -0.003727355 -0.0024316288 -0.01484136 0.0026723964 0.0092330845 -0.00062340184
0.005908317 0.012955398 -0.0029967113 -0.011907393 0.0020282688 0.0027355417 -0.00841294 0.010894692
0.009649757 0.00070052495 -0.0064852405 0.0021287426 0.0060036774 0.0055709123 -0.008902999 -0.0037125277
-0.0043695476 0.0059527294 -0.0024236795 -0.0069749346 0.0067953854 0.009758937 -0.0020840624 0.0004845609
0.0006507175 -0.0047078044 0.0055055963 -0.0051877866 -0.0038203294 -0.0032157656 -0.0035864788 -0.002658668
0.00013889089 -0.0009210336 -0.0028283177 0.004210492 0.013687984 -0.0029462837 0.0053716414 0.00571719
-2.9150013e-05 -0.00055633613 -0.0032568728 -0.005196303 -0.0013549783 0.0024759346 -0.0034798277 0.0015880959
0.006244157 0.0021110869 0.0031435653 0.0043312637 -0.0011742635 -0.0077187903 -0.004971354 0.0030076127
0.00055308786 0.006969897 -0.0060153888 -0.003965493 0.0043658055 0.0037627767 -0.0056622755 -0.000438415
0.0070590265 0.0045586904 0.006833456 -0.0014235874 0.0038263027 -0.00054681126 -0.0052832244 0.00458846
0.00027337842 -0.00051200425 -7.800657e-05 0.0012981406 -0.0008588982 0.001607868 0.00073141267 -0.001075571
-0.00057922234 0.0005460001 -0.0005062134 0.00018206528 0.00160427 -0.00036401805 -0.00047072492 -0.00043554488
0.0011988936 -0.00062354596 -0.0005791457 -0.0005279076 -0.0003241897 0.0003095193 0.0009657966 9.8648976e-05
0.0002780985 0.00066832424 0.0014798128 0.00053719885 -0.0007172827 0.0006569372 -0.00096485345 -3.1425472e-05
0.0006153346 -0.00035435107 0.00026108607 0.00029665144 0.00021467952 0.0002640838 -0.00019765263 -0.00065349904
0.00027042575 -0.00021505103 -0.00078381185 -0.0009870145 0.0004354066 0.0011903452 0.0007098584 -0.0007708599
-0.00035902334 0.00025646106 0.00017876826 0.000107963344 -0.0022358615 -0.0006558015 0.0011302413 -0.00020783304
0.001535441 0.0010799362 -0.0003124127 -0.0006328463 -0.0009917591 5.3792373e-05 1.1256023e-05 0.0010667306
0.0008608396 -0.0006856013 -0.0019410343 -0.0008540574 0.00017803714 0.0005861212 0.00027347976 -0.0012462422
-0.00020297528 0.00043174642 -0.0025538176 0.00018573955 0.0021199035 0.00044671158 0.0011914292 -4.95115e-05
0.000111523776 0.0012505582 0.0004999285 -0.0005192005 0.0005401087 -1.5720552e-05 -0.0004749152 -0.00020003412
0.0008943797 0.0003323475 -0.001269233 0.0011020143 0.0008001759 -0.00014736522 7.1936294e-05 -0.0010741247
4.1923347e-05 0.0007084132 -0.0011549442 0.0008683439 0.00063150364 0.0004138793 0.0004830138 -7.7345445e-05
0.00072829105 -0.00080221717 -0.0007814219 0.00018730902 0.00032706952 -0.00044929748 -0.0015675351 -0.00051931373
9.525093e-05 0.0008908852 -0.00019106292 -0.00080782745 0.0007318189 0.0006239077 -0.001568774 -0.0007606167
6.1014598e-05 -2.4722442e-06 -7.875674e-05 -0.0011117583 0.0007316451 8.906097e-06 -0.0017925698 0.00049715315
00000000: caaa c03b e1c5 4dbb b317 cbba 9422 393c
00000010: 6a1f a5bb a628 443a 737a b43a df5c 5abb
00000020: 0625 f8ba 926b 223a 36c1 a3ba 1086 1cbc
00000030: 1766 aeba 565b d6bb e113 3b3b 03c6 47bb
00000040: 4f72 81ba cfda e8bb 546a 97bb bed9 dabb
00000050: 336a 38bc b3cb 423b 6b70 d0ba 67ef bcbb
00000060: 8e9f 33bb 853a d9bb 3295 7a3b 0b3c 2b3c
00000070: 528b 8eba 6515 c9bb 8d25 8ebb 03dc cc3b
00000080: afa9 b1bb 3569 b03b 8f79 863a 1114 133c
00000090: 7260 d2b9 8d9f d5ba 3fe3 8dbb 0eb9 a4b9
000000a0: 4558 493b 14cd ee3b 9ca3 1038 3d22 69ba
000000b0: 89c0 48bb 219c 063c 8dd5 153c 9d5d a63b
000000c0: b427 c3bb 1a2d ff3b a446 74bb f65b 1fbb
000000d0: 2d29 73bc 5f23 2f3b 5d46 173c ca6b 23ba
000000e0: 8e9a c13b e142 543c 7964 44bb 3a17 43bc
000000f0: b4ec 043b c646 333b 6ed6 09bc a67f 323c
00000100: 041a 1e3c 6fa3 373a 2482 d4bb 6082 0b3b
00000110: 7fba c43b 338c b63b e2dd 11bc e14d 73bb
00000120: 6c2e 8fbb 1d0f c33b 98d6 1ebb fe8d e4bb
00000130: d3ab de3b f3e3 1f3c c494 08bb aa0c fe39
00000140: ea94 2a3a ed43 9abb 4a68 b43b 4ffe a9bb
00000150: 7e5e 7abb 98bf 52bb 210b 6bbb 0c3d 2ebb
00000160: 3da3 1139 8571 71ba 4c5b 39bb 2bf8 893b
00000170: 9143 603c 7016 41bb 9804 b03b 4457 bb3b
00000180: 2d87 f4b7 16d7 11ba 4271 55bb c045 aabb
00000190: 8799 b1ba 4a43 223b d20d 64bb a827 d03a
000001a0: c99b cc3b 295a 0a3b 4604 4e3b 46ed 8d3b
000001b0: bfe9 99ba e8ed fcbb bde6 a2bb 5e1b 453b
000001c0: 19fd 103a bc63 e43b bd1c c5bb f7f0 81bb
000001d0: 080f 8f3b eb98 763b 9c8a b9bb 11db e5b9
000001e0: 684f e73b 1161 953b 2feb df3b ab97 baba
000001f0: b5c2 7a3b e257 0fba e61e adbb cb5a 963b
00000200: 3b54 8f39 0638 06ba 7597 a3b8 5f26 aa3a
00000210: af27 61ba 19bf d23a 46bc 3f3a 2dfa 8cba
00000220: f4d6 17ba 7221 0f3a 68b3 04ba c7e8 3e39
00000230: 5e46 d23a add9 beb9 a1cb f6b9 d859 e4b9
00000240: 3224 9d3a 7675 23ba cfd1 17ba 4863 0aba
00000250: 01f8 a9b9 fa46 a239 832d 7d3a c4e1 ce38
00000260: c0cd 9139 7b32 2f3a 47f6 c13a ced2 0c3a
00000270: 0708 3cba 4f36 2c3a 38ee 7cba d8ce 03b8
00000280: 684e 213a 32c8 b9b9 61e2 8839 e287 9b39
00000290: 981b 6139 ba74 8a39 f940 4fb9 944f 2bba
000002a0: eec7 8d39 527f 61b9 b978 4dba b65e 81ba
000002b0: 4947 e439 5b05 9c3a ca15 3a3a 8813 4aba
000002c0: 4c3b bcb9 9f75 8639 bd73 3b39 616a e238
000002d0: 8887 12bb 18ea 2bba 9b24 943a c2ed 59b9
000002e0: da40 c93a a58c 8d3a 53cb a3b9 99e5 25ba
000002f0: eafd 81ba 1f9f 6138 40d8 3c37 8ad1 8b3a
00000300: f8a9 613a edb9 33ba 4e6a feba d2e2 5fba
00000310: 7baf 3a39 eea5 193a d561 8f39 f358 a3ba
00000320: c3d5 54b9 065c e239 f35d 27bb 15c3 4239
00000330: 14ee 0a3b 9d34 ea39 bb29 9c3a 91aa 4fb8
00000340: dfe1 e938 c5e9 a33a a20d 033a f51a 08ba
00000350: 1596 0d3a a1df 83b7 0afe f8b9 40c0 51b9
00000360: ce74 6a3a ed3e ae39 645c a6ba 7771 903a
00000370: e5c2 513a 0d86 1ab9 81dc 9638 a5c9 8cba
00000380: dad6 2f38 ceb4 393a 7f61 97ba 93a1 633a
00000390: 7e8b 253a f0fd d839 043d fd39 8534 a2b8
000003a0: c9ea 3e3a e24b 52ba 56d8 4cba 6268 4439
000003b0: 877a ab39 b08f ebb9 c075 cdba 8e22 08ba
000003c0: 74c1 c738 4b8a 693a 1058 48b9 62c4 53ba
000003d0: 89d7 3f3a bd8d 233a 529f cdba 1f64 47ba
000003e0: ede9 7f38 d5e8 25b6 342a a5b8 6bb8 91ba
000003f0: dfcb 3f3a 656b 1537 a9f4 eaba 6253 023a

exp_avg_sq f4 [11, 128]
0.0031452002 0.00066755776 0.010740058 0.04507879 0.0048401705 0.0072424645 0.002457297 0.00024004902
0.031805728 0.005826152 0.0008781338 0.017416056 0.0016216983 0.0008497799 0.0048508937 0.00041494434
0.0045957975 0.0035720149 0.008589238 0.0014204438 0.018086769 0.0058746394 0.01922851 0.0030241336
0.0064642443 0.0024142903 0.014794221 0.003955084 0.010667532 0.036597826 0.014796106 0.0042733406
0.008872598 0.0024884436 0.00039090603 0.0015543574 0.013510586 0.001668098 0.0031346949 0.0010299785
0.0017015415 0.005212542 0.0011234473 0.0011183188 0.01999093 0.009749674 0.0033865792 0.0016641642
0.0030291108 0.0027139562 0.00056712044 0.008103307 0.035124782 0.00095551705 0.018288948 0.010062087
0.004464593 0.019795783 0.004469742 0.018053563 0.000978577 0.028748084 0.03425888 0.07294698
0.020013995 0.0017240215 0.011660578 0.006125573 0.017260583 0.028772332 0.0051220204 0.0044320184
0.0012163746 0.001446343 0.057603933 0.0022046394 0.049472373 0.0023183308 0.0017438276 0.016299117
0.009506127 0.0006035377 0.001749386 0.0168059 0.003517636 0.0005057762 0.002466961 0.0009253902
0.003503819 0.0020594848 0.0012231731 0.0020929845 0.009694804 0.017592937 0.0011038148 0.0019036249
0.008149218 0.016086686 0.0010190665 0.0024993552 0.00030599078 0.00049910456 0.006030808 0.0027932678
0.030606234 0.0064301565 0.020311464 0.0022841783 0.005759387 0.031274904 0.001312931 0.0026371514
0.0048208907 0.002417828 0.005893411 0.0035793493 0.00089022866 0.019438587 0.0010255777 0.0005805523
0.0014486891 0.0018064564 0.0060278326 0.0023013332 0.00039837213 0.00034249158 0.007927297 0.0009645273
7.384502e-05 7.48292e-05 4.536403e-05 0.00046803217 5.1426363e-05 4.473993e-05 3.423299e-05 1.2395698e-05
0.0003133101 1.9996278e-05 2.0458434e-05 0.0002915539 9.977542e-05 2.2843404e-05 6.203769e-05 2.3387964e-05
6.871517e-05 9.486175e-05 3.3713903e-05 1.8666078e-05 0.00031438612 7.549821e-05 6.880783e-05 9.284134e-05
0.00017031009 8.9570574e-05 0.0001397831 0.00011011365 0.0001313065 0.00033895095 7.7132805e-05 3.6952562e-05
0.00028872056 5.4975608e-05 2.3602817e-05 7.142326e-05 3.9267772e-05 1.6902319e-05 3.3423014e-05 6.8786e-05
2.8165823e-05 0.0001303881 9.973417e-05 8.717936e-05 0.00027332877 0.00019314565 6.0891893e-05 0.00010783721
2.5544487e-06 0.00013015061 1.9783476e-05 0.00010823405 0.00026686757 3.0415173e-05 0.00037011845 1.9222764e-05
4.8399725e-05 0.00024015682 5.4792854e-05 0.0002892301 6.695903e-05 0.000197306 0.00049734506 0.0007852721
0.00022816967 2.088196e-05 8.21814e-05 4.2353004e-05 0.00011588885 0.00021116255 8.1207654e-05 2.4789737e-05
2.6849897e-05 4.1508258e-05 0.00052176206 5.9767062e-05 0.00085906853 2.9557286e-05 8.0639256e-05 6.369059e-05
0.00013622087 6.6689056e-05 2.4457435e-05 6.1214414e-05 0.00018523014 3.0851148e-05 2.6318772e-05 1.3528873e-05
0.0002113948 5.8553007e-05 4.642725e-05 2.626396e-05 0.00013220383 6.886712e-05 5.564793e-05 0.00011763438
0.00022265075 6.55536e-05 5.4696528e-05 5.099888e-05 2.9603027e-05 5.4667024e-05 7.972271e-05 7.684101e-05
0.00014812216 4.613521e-05 2.8746532e-05 5.09324e-05 1.2352591e-05 0.00070775556 3.3797343e-05 0.000105963314
9.326003e-05 4.0763465e-05 0.00022681897 4.057804e-05 2.7613696e-05 9.926481e-05 3.5770154e-05 4.136074e-05
2.5965457e-05 4.778346e-05 0.00015757709 0.00011556446 1.7692484e-05 1.192752e-05 0.00019509812 1.8818915e-05
00000000: b41f 4e3b 0bff 2e3a 11f7 2f3c 8aa4 383d
00000010: 4b9a 9e3b 3252 ed3b 9a0a 213b abb5 7b39
00000020: b946 023d 4ee9 be3b 9032 663a 1eac 8e3c
00000030: 2a8f d43a c4c3 5e3a 3ff4 9e3b e38c d939
00000040: 5898 963b 7718 6a3b e0b9 0c3c 2f2e ba3a
00000050: b42a 943c 0c80 c03b 1c85 9d3c 8b30 463b
00000060: 03d2 d33b 1239 1e3b 7663 723c a699 813b
00000070: dfc6 2e3c 9ae7 153d 5e6b 723c 6107 8c3b
00000080: 605e 113c 2815 233b 85f2 cc39 94bb cb3a
00000090: 815b 5d3c 15a4 da3a 746f 4d3b 5800 873a
000000a0: 4206 df3a f9cd aa3b a340 933a 8d94 923a
000000b0: 05c4 a33c 19bd 1f3c 5ff1 5d3b 1620 da3a
000000c0: 0c84 463b a1dc 313b cfaa 143a bcc3 043c
000000d0: 01df 0f3d aa7b 7a3a b4d2 953c 74db 243c
000000e0: b84b 923b c42a a23c ea76 923b 11e5 933c
000000f0: 9843 803a 1a81 eb3c 0a53 0c3d 3a65 953d
00000100: 64f4 a33c 90f8 e13a 020c 3f3c 08b9 c83b
00000110: 1166 8d3c f4b3 eb3c 9fd6 a73b 773a 913b
00000120: c26e 9f3a 3893 bd3a 1af2 6b3d b67b 103b
00000130: 8ba3 4a3d 23ef 173b 2591 e43a ba85 853c
00000140: 96bf 1b3c bb36 1e3a a74b e53a 87ac 893c
00000150: 2488 663b 1196 043a bdac 213b e395 723a
00000160: 54a0 653b 6cf8 063b e152 a03a 742a 093b
00000170: f5d6 1e3c 101f 903c e1ad 903a 0d83 f93a
00000180: 4c84 053c 3ac8 833c 3392 853a 39cc 233b
00000190: 636d a039 57d6 023a 169e c53b 420f 373b
000001a0: edb9 fa3c 10b4 d23b 3a64 a63c 27b2 153b
000001b0: 3db9 bc3b 1d1a 003d a716 ac3a 0fd4 2c3b
000001c0: 90f8 9d3b 6c74 1e3b 841d c13b 8493 6a3b
000001d0: 3c5e 693a ac3d 9f3c ad6c 863a 3530 183a
000001e0: f1e1 bd3a 9ec6 ec3a 2085 c53b f7d1 163b
000001f0: 9adc d039 7190 b339 7ee1 013c 55d8 7c3a
00000200: 3edd 9a38 9fed 9c38 4245 3e38 3762 f539
00000210: a3b2 5738 22a7 3b38 6595 0f38 1ef7 4f37
00000220: c543 a439 aebd a737 279e ab37 b4db 9839
00000230: 853e d138 d69f bf37 3b1a 8238 4531 c437
00000240: 2d1b 9038 84f0 c638 0768 0d38 1995 9c37
00000250: 31d4 a439 cb54 9e38 ec4c 9038 d1b3 c238
00000260: 4495 3239 d6d7 bb38 bd92 1239 d1ec e638
00000270: 52af 0939 3ab5 b139 5cc2 a138 83fd 1a38
00000280: 6b5f 9739 9c95 6638 aafe c537 12c9 9538
00000290: 73b3 2438 74c9 8d37 b02f 0c38 3441 9038
000002a0: a545 ec37 cab8 0839 6028 d138 10d4 b638
000002b0: 914d 8f39 2487 4a39 2c66 7f38 a926 e238
000002c0: 186d 2b36 0a79 0839 b1f4 a537 b7fb e238
000002d0: 5cea 8b39 1624 ff37 750c c239 9240 a137
000002e0: cf00 4b38 9bd2 7b39 61d1 6538 cfa3 9739
000002f0: 5b6c 8c38 ede3 4e39 4360 023a b8da 4d3a
00000300: d440 6f39 ab2b af37 ce58 ac38 31a4 3138
00000310: 5a09 f338 846b 5d39 074e aa38 8ef3 cf37
00000320: b73b e137 2719 2e38 dcc6 083a 65ae 7a38
00000330: 1d33 613a caf1 f737 df1c a938 a091 8538
00000340: 83d6 0e39 6adb 8b38 f129 cd37 3d60 8038
00000350: 563a 4239 2b66 0138 22c7 dc37 11fa 6237
00000360: dca9 5d39 d096 7538 e1ba 4238 6d51 dc37
00000370: 32a0 0a39 c16c 9038 8367 6938 7ab2 f638
00000380: 5b77 6939 d279 8938 f369 6538 a1e7 5538
00000390: 0454 f837 454a 6538 ce30 a738 b425 a138
000003a0: 3d51 1b39 4e81 4138 b524 f137 40a0 5538
000003b0: f93d 4f37 ac88 393a 9fc1 0d38 9f38 de38
000003c0: 9994 c338 70f9 2a38 41d6 6d39 5732 2a38
000003d0: f6a3 e737 642c d038 e907 1638 c27a 2d38
000003e0: 65d0 d937 196b 4838 473b 2539 325b f238
000003f0: 526a 9437 4f1c 4837 4193 4c39 50dd 9d37
