ALTEGRAD/LAB7_Influence_max/code/part1/model_deepsets.pth.tar (torch_old, 119044 bytes, 12 tensors)

embedding.weight f4 [11, 128]
000000 f1 ac 57 3f 25 41 02 3d 09 74 59 be c3 bf 0d be
       0.8424826 0.031800408 -0.2123567 -0.13842683
000010 78 67 88 3f 7e 69 8d 3f c8 4a 32 3f ce 04 13 bf
       1.0656576 1.1047819 0.6964536 -0.57429206
000020 73 e2 a8 3f cb 08 75 bf 72 7e 99 3f 89 6a 67 be
       1.3194107 -0.9571654 1.1991713 -0.22599234
000030 a8 55 22 bf 15 5a 26 3f c8 91 07 3f d2 32 bd 3f
       -0.6341195 0.64981204 0.5295682 1.4781134
000040 19 e0 56 3e 28 7d 9b bf 71 a3 2e 3f 6d cc 0f 3f
       0.20983924 -1.214757 0.6821814 0.56171304
000050 b3 e9 61 bf c5 6a 2e bf 7d 40 58 3f cf f6 96 bd
       -0.8824722 -0.6813167 0.844734 -0.07371294
000060 ec e7 6f bf 44 0c e6 be 9e 74 f3 bf 7c d6 0c 3f
       -0.9371326 -0.44931233 -1.9019964 0.5501478
000070 cf 14 f9 be 62 24 c2 bf 39 65 25 bf 6f 6b b7 3f
       -0.48648688 -1.5167353 -0.6460758 1.4329661
000080 cb e6 0b 3f 6b e8 98 bf b7 f3 94 3e f4 9f 1d 40
       0.5464904 -1.1945928 0.2909219 2.4628878
000090 4b de af bc bf 1a 40 3f fc 26 97 3c c5 47 f8 3e
       -0.021468302 0.7504081 0.018451206 0.48492256
0000a0 a4 30 52 bf 1b f2 80 3f 46 4b 93 3e c3 b2 86 3f
       -0.8210547 1.0073885 0.28768367 1.0523304
0000b0 29 28 cb bf 20 2e 4a 3f 31 cf 2c 3f f0 f7 7a bf
       -1.5871631 0.7897663 0.6750365 -0.9803457
0000c0 45 5f ad 3e 7d 0a 6e 3f e2 b7 00 40 56 b6 99 bf
       0.33861747 0.92984754 2.0112233 -1.200877
0000d0 ab 97 91 3f 9e 84 f5 be b1 0a f9 bd 64 d5 b5 bf
       1.137441 -0.4795274 -0.12160242 -1.4205747
0000e0 d8 f7 d3 3f 81 56 96 bf 4d 4a 0a c0 e0 e2 09 bf
       1.6560011 -1.1745149 -2.160785 -0.5386181
0000f0 81 de 6a bf 8d 1a 25 3f 1a 42 d7 be 42 d6 ae be
       -0.91745764 0.6449364 -0.4204262 -0.3414784
000100 cf f8 30 3f d2 64 29 3e a9 e7 63 3f 68 11 00 3f
       0.6912965 0.16542366 0.8902536 0.5002656
000110 71 7f 97 3d 91 d6 bb 3e cf 82 b4 bf 53 c1 5e bf
       0.073973544 0.3668714 -1.410242 -0.8701374
000120 e8 6f fc 3e 10 85 5e bf 5a df 2f 3f 99 34 26 bc
       0.49304128 -0.8692179 0.6870018 -0.010144376
000130 6f 6b 62 bf ae f0 b9 be e8 1f 4a 3e 7d ce 80 3f
       -0.8844518 -0.36316437 0.19738734 1.0063015
000140 56 43 a5 3d 67 b9 ea be 3e 5e df bf e4 ff 8a 3f
       0.08069484 -0.45844576 -1.7450635 1.0859342
000150 9e 9f 8f 3e 89 56 b6 bf d1 04 ac bf e4 97 69 bd
       0.28051466 -1.4245158 -1.343897 -0.05702962
000160 12 ca 8c 3f 65 7d 70 3f fa 60 be bd 4e f3 bb bf
       1.0999167 0.93941337 -0.092958406 -1.4683626
000170 d6 2e df bf 60 05 11 bf ad 23 bc bf bd 50 d1 bf
       -1.7436168 -0.56648827 -1.4698387 -1.6352764
000180 51 69 6f 3f d7 3e b6 bf 56 5e 86 3f 10 23 c2 3f
       0.93520075 -1.4237927 1.0497539 1.516695
000190 59 dc 95 3f 46 1f d1 3e 7b 87 20 3e 79 37 47 3e
       1.170787 0.40844172 0.15676682 0.19454755
0001a0 b2 14 89 3f 5c 65 3e 3f 9f 1f 49 3f f3 25 60 bf
       1.0709441 0.7437341 0.78563875 -0.87557906
0001b0 15 91 33 3d a6 28 a8 bd 59 a5 f3 bf 29 df 42 3f
       0.043839533 -0.08210878 -1.9034835 0.76121765
0001c0 0a 82 05 3c a8 a3 00 c0 f1 f4 87 bf 8c 7b 76 3e
       0.0081486795 -2.0099888 -1.0621625 0.24070567
0001d0 10 17 8e 3f a9 74 11 3f f3 41 09 40 bc 1f 92 bf
       1.1100788 0.56818634 2.1446502 -1.1415935
0001e0 b9 41 a7 bf f4 6c 76 bf 7d c0 e2 bf 11 b3 91 3f
       -1.3066932 -0.9626 -1.7714993 1.1382772
0001f0 92 36 46 bf d9 76 a6 bf 92 9f c0 3f 2a 05 ce 3e
       -0.7742702 -1.300502 1.5048697 0.40238315
000200 da 3b c1 3f 8e 33 af 3f c7 63 35 3e 88 06 99 bd
       1.509639 1.3687608 0.17713843 -0.07471949
000210 b0 c5 4d bd 62 59 40 bf 98 9e 01 3d 22 38 e0 be
       -0.050237358 -0.7513639 0.031645387 -0.43792826
000220 c6 ff e6 bf 89 5b c2 be b2 34 bf be 1e 75 44 bf
       -1.8046806 -0.3796046 -0.3734489 -0.76741207
000230 f1 fc cd 3f 40 39 21 c0 84 6d 22 3f 1c e9 86 3e
       1.6092817 -2.5191193 0.6344836 0.26349723
000240 b2 ca 1a bf 65 51 8f 3f 05 30 f1 3e f3 50 08 40
       -0.6046554 1.1196715 0.47106948 2.1299407
000250 f6 1c 57 be 3c 1f e0 3f 22 92 c7 bf 53 ce ad bf
       -0.21007141 1.7509532 -1.5591471 -1.357859
000260 bf 69 03 3e 0b 14 81 bf 37 aa 61 3f 71 27 5f 3f
       0.12833308 -1.0084242 0.8815035 0.8716956
000270 64 7f f5 3d 5a de a9 3d 17 d9 a2 bf 0e 74 f7 3e
       0.119871885 0.08294363 -1.27225 0.4833073
000280 4c a3 5e 3f a1 50 3b bf b7 dc fc 3e 23 ec 5b 3e
       0.8696792 -0.73169905 0.49387142 0.21476798
000290 63 9d 83 3f 32 49 48 be 54 a2 55 be 7e d4 fe 3e
       1.0282406 -0.19559172 -0.20862705 0.49771494
0002a0 3e c4 e4 3e a6 ae f7 be 3b cb 88 3f f6 c8 dd bf
       0.4468097 -0.48375434 1.0687021 -1.7326953
0002b0 40 9b 27 bf 1d 03 c5 be e9 36 75 3d b9 a8 3c 3e
       -0.6547127 -0.38478938 0.05986682 0.18423738
0002c0 e7 bd dc be 0f 52 a7 3f ca 13 a1 3f 5d b5 86 3f
       -0.43113634 1.3071917 1.2584164 1.0524098
0002d0 55 54 7c 3f 3e 18 1d 3e 9f 7e 9e 3e d5 56 f7 3e
       0.9856618 0.15341279 0.3095598 0.48308435
0002e0 68 30 11 40 d9 97 e8 bf 98 f2 e6 bd 3c 24 d3 bf
       2.2685795 -1.817134 -0.1127674 -1.6495433
0002f0 0a 6e bc 3e e9 ca 4f 3f 2c 4f 97 bf e1 55 5a bf
       0.36802703 0.8116899 -1.1821036 -0.8528729
000300 cf a4 cb bf ef c8 96 3f 45 62 00 40 63 10 d8 bf
       -1.590967 1.178007 2.005998 -1.6880001
000310 d9 56 c0 bf 7f 31 79 3f 7e e2 f0 3e 66 f5 6f bf
       -1.5026504 0.9734115 0.470478 -0.93733823
000320 36 63 19 40 47 5f 97 be 69 43 eb 3f d7 50 fe 3f
       2.3966804 -0.29564878 1.8379947 1.986842
000330 92 86 ba bf 2c 0f 44 bf a4 ff 75 bd b7 1d 50 bf
       -1.4572318 -0.7658565 -0.06005825 -0.8129534
000340 65 b8 e5 3f bc 47 6f bf 8a 66 82 3f 43 55 85 3f
       1.7946898 -0.9346883 1.0187542 1.0416645
000350 7d 30 92 3e 9f cd 82 3f 73 86 27 3f 11 d8 34 c0
       0.2855262 1.0219 0.6543953 -2.8256876
000360 34 cf 15 3f 03 27 2f bf ed c8 00 be 4b 05 9b bd
       0.5851929 -0.684189 -0.12576647 -0.07569369
000370 8c 75 61 bf 7e 09 f9 3e 68 50 0a bf 85 0b ca bf
       -0.8806999 0.48640054 -0.5402894 -1.5784765
000380 95 19 a6 bf 13 77 18 3f 95 6c 7d 3e 1b 01 6b 3e
       -1.2976557 0.5955669 0.24748452 0.2294964
000390 e5 7e 64 bf 11 b7 5f 3e 3f d7 14 3e 0e b9 5c 3f
       -0.89256126 0.21847178 0.14535235 0.8621987
0003a0 bd b2 6b 3e 23 33 ce 3d d6 74 0c 3e 07 a6 ca bf
       0.23017402 0.10068347 0.13716444 -1.5831918
0003b0 e7 14 60 3f ae 3d 22 3e e7 f3 01 40 b3 87 a6 3f
       0.87531894 0.15843841 2.0305116 1.3010162
0003c0 95 ba 4c 40 05 f2 9f bf f2 28 b5 3c 79 08 a7 bf
       3.198888 -1.2495733 0.02211425 -1.3049461
0003d0 58 e6 b2 3f d4 89 49 bf 55 88 b4 be 6c 40 e1 3f
       1.3976545 -0.78725934 -0.35260263 1.7597785
0003e0 5a 37 d7 3f d6 61 87 3f c5 7a dc 3d 3f f9 3d 3f
       1.6813767 1.0576732 0.10765604 0.74208444
0003f0 9e 7f 3b 3f db 41 8e 3f fe 4a 9e be 47 42 34 3d
       0.73241603 1.1113847 -0.3091659 0.04400852

fc1.weight f4 [64, 128]
000000 62 5e 6d 3d c1 a8 0f bd 59 06 05 3e 5d 85 51 3d
       0.05795134 -0.035073046 0.12990703 0.051152576
000010 38 bd 13 bb d1 73 cd ba e8 15 13 3e b9 65 66 bc
       -0.0022543203 -0.0015674775 0.14363825 -0.0140623385
000020 5f 74 bd 3d eb 71 2a bd 56 a8 bc bc 45 32 18 3d
       0.09250712 -0.041612547 -0.023029488 0.037157316
000030 7f 3d b4 bb b2 68 09 be 30 db a3 3d e0 2e ea 3d
       -0.005500495 -0.13418844 0.08000791 0.11434722
000040 6b 6e 87 3d 12 07 1a bd 3c 43 87 3d 8f 18 4f bd
       0.066128574 -0.0376044 0.06604621 -0.05056053
000050 88 a1 e8 3d 98 d7 26 be 41 fd 2a be b8 3f 06 be
       0.11358935 -0.1629318 -0.16698171 -0.13110244
000060 4f dc dd 3b c3 53 5e bd 4a 99 cc 3c 37 a0 d3 3d
       0.0067706476 -0.0542791 0.024975438 0.10333293
000070 a8 48 f6 3d 63 0d 94 bc 92 11 1e be de d9 1f 3e
       0.12025577 -0.01807279 -0.1543639 0.15610453
000080 ac dd 21 be 9e ea fc bd 84 87 3e 3e ae 94 34 3c
       -0.15807217 -0.12349437 0.18606383 0.011021776
000090 48 60 b4 bb 3e 2f 84 bc cb 5c d6 bd 48 39 05 3e
       -0.0055046417 -0.016135808 -0.104669176 0.13010132
0000a0 c6 1a c1 bd 3d 22 2f 3d 77 2d 3b 3e 42 55 d5 bd
       -0.09428935 0.04275726 0.18279062 -0.10416652
0000b0 6d f2 b9 bd ab 1f 51 be 30 2f c8 bd e7 37 dd bd
       -0.09079442 -0.20422237 -0.09774625 -0.10801678
0000c0 e1 bf 3a 3d a0 e5 01 3e 5a 0d d8 bd 90 19 98 3a
       0.045593146 0.12685251 -0.105494216 0.0011604298
0000d0 07 46 16 3e 82 93 ea bb 7f f0 eb 3d a4 d8 02 be
       0.14675151 -0.0071586976 0.1152048 -0.12777954
0000e0 a9 28 1b 3e 07 30 37 be f7 a6 f7 bd 6e 44 fa bd
       0.1515223 -0.17889415 -0.12092393 -0.12220083
0000f0 6f 6a 38 be d4 b1 90 3d 28 9f 19 3e 2f d7 1d bd
       -0.18009351 0.07065168 0.1500212 -0.038535293
000100 aa b6 a9 bc 34 26 49 be d9 6b 4a 3c 66 2e 06 be
       -0.020716984 -0.1964348 0.012354814 -0.13103637
000110 2a 1a 45 be ad a9 9a 3d b8 dd 4b bd 6f fc b8 bd
       -0.19248262 0.07551894 -0.049771994 -0.09032523
000120 16 ff bb 3d df ba a3 bd c2 59 5b bd 3f 1f 1b 3d
       0.09179513 -0.07994627 -0.053552397 0.037871595
000130 8d 35 9c bd cf 50 01 be d6 e0 a1 3d e2 ef 89 3d
       -0.076274015 -0.12628482 0.07904212 0.06735207
000140 8b 2f de 3d 0f ea 83 3d 98 c7 06 3e 49 6e d0 3d
       0.10848912 0.064411275 0.13162076 0.10177285
000150 7a 3d 5f bd e1 fb 5f 3d cf 2a f4 bd 19 97 9b bb
       -0.054501988 0.05468357 -0.119222276 -0.004748237
000160 60 72 3a 3e 4a 78 07 3e e0 96 e2 bb d3 96 0e bd
       0.18207693 0.1322948 -0.0069149584 -0.034811806
000170 1f c1 e0 bd 16 35 43 be fa c1 f3 bd 75 f1 00 be
       -0.10974335 -0.1906322 -0.119022325 -0.12592109
000180 e8 c9 de 3d 7a 5a db bd ff 7e 15 3e 6e fe 1a 3d
       0.10878354 -0.107106164 0.14599226 0.0378403
000190 d1 24 2a 3e 21 25 5a 3d 4b 3f 69 3b 4f 55 c7 3d
       0.16615607 0.053258065 0.0035590704 0.09733068
0001a0 ba cb 0c 3e 9b 49 0f 3e 9b c3 4d 3d c8 23 a7 bd
       0.1374959 0.13992922 0.050235372 -0.081611216
0001b0 5b f9 28 3e 1f 5b d5 3d f2 95 cb bc 61 78 0d be
       0.16501372 0.104177706 -0.024851773 -0.13815452
0001c0 b0 f3 2a 3e 52 64 5d be 9b 1c c3 bd 26 b6 b5 bd
       0.16694522 -0.216203 -0.095269404 -0.08872633
0001d0 d3 59 66 3d c2 6a cd 3d d6 ec 03 3e ec 50 f6 3b
       0.056238007 0.10030128 0.12883314 0.007516971
0001e0 b5 6c c0 3b 3a b1 56 bd d9 d5 19 be 78 e3 82 3d
       0.005872334 -0.05241511 -0.15022983 0.063910425
0001f0 8e ea 4e bd f5 8e 92 3d 4e 12 00 be 93 2d bd 3d
       -0.050516658 0.07156173 -0.12506983 0.09237208
000200 a7 9c 17 3e fa 20 0e bb 3c 35 08 be b0 c9 99 bd
       0.14805852 -0.0021687136 -0.13301557 -0.07509172
000210 75 c8 db 3d 21 c1 51 3d 05 f5 0d be 92 ef 0b be
       0.107315935 0.051209573 -0.13862999 -0.13665608
000220 1d f0 37 bc e7 36 0f bc 6f 6e 23 3e c4 ce 2d be
       -0.011226681 -0.008741117 0.15960096 -0.16973406
000230 c3 a2 39 be 03 84 15 3e f1 e1 4e bd 21 73 e9 3c
       -0.18128495 0.1460114 -0.050508443 0.02849728
000240 2e e3 34 be c8 cb 93 3d ff 15 3f 3d ad 49 28 3e
       -0.17664787 0.072166026 0.046651836 0.16434355
000250 b4 18 3c be a3 ca ae 3c 27 1d 16 3e 0f 78 8c 3d
       -0.18368798 0.02133686 0.14659558 0.06858837
000260 59 c4 10 be a9 1b 20 bd ef fa 29 be 91 d0 a5 bd
       -0.141374 -0.03908888 -0.1659963 -0.080964215
000270 08 be 02 be ef 2a 06 be 9f 51 82 bb e0 18 63 bc
       -0.12767804 -0.13102315 -0.003977015 -0.013860911
000280 52 16 16 3e 4f 35 10 bd fc 6b 1b be 6f da 69 3e
       0.14656952 -0.03520709 -0.15177912 0.22837232
000290 4c a6 ad 3b 16 c9 05 3e f8 4b 30 3e 96 51 47 bd
       0.005299365 0.1306499 0.1721648 -0.04866179
0002a0 cb 4c a4 bc a1 f1 50 3c 67 d4 4a bd d3 ee 8b 3e
       -0.020056149 0.012752921 -0.04951897 0.27330646
0002b0 1a 58 9f bc ec b1 e4 3d ad 25 5f 3e 7e 5a 94 bc
       -0.01945119 0.111667484 0.21791716 -0.018109556
0002c0 54 5a 4e 3c 0e 78 52 3c 88 3f 22 3e 73 fb 5e be
       0.012594778 0.012846006 0.15844548 -0.21775608
0002d0 c5 43 5d bc 5a 21 a0 3d 2f 28 3d be b8 1d b4 bc
       -0.013504927 0.07818861 -0.1847236 -0.021986827
0002e0 ef dc b6 bd 26 3f 12 bc 8d 04 10 3d b0 93 a3 3c
       -0.089288585 -0.008926189 0.03516059 0.019967884
0002f0 12 9c cc bc da b6 58 3d 2a 21 0c be d1 0c 9c bd
       -0.024976764 0.052908756 -0.13684526 -0.07619632
000300 ec 7d 5e 3d a1 26 15 3e e3 46 1f 3d 0e 8d 20 3e
       0.054319307 0.14565517 0.038885962 0.15678808
000310 08 b8 13 3e ae c8 2d be 67 22 4a be 39 34 16 3e
       0.14425671 -0.16971084 -0.19739686 0.14668359
000320 47 08 fd 3b 9e 4a 8d 3d fc b0 47 bc f2 41 72 3d
       0.007721934 0.06898998 -0.012188192 0.05914492
000330 66 01 74 3d 9f dd 0e 3e 75 6b bd 3c 8d ab 06 3e
       0.059571646 0.13951729 0.023122529 0.13151379
000340 c1 66 70 bd 7f f7 49 be 3d f0 1f be 69 4f 03 3a
       -0.058691744 -0.19723319 -0.15618987 0.00050090865
000350 a8 2c f0 3d da 94 0e bd 59 4c 3d bd be 6f d6 3d
       0.117272675 -0.034809925 -0.04621539 0.10470532
000360 b8 6f a3 bd 15 b2 a8 3c 9b c3 d5 3d ea 63 37 be
       -0.07980293 0.020592729 0.104376994 -0.17909208
000370 36 52 2e bd c6 6a f5 3d 09 80 13 3d 3f 2e 9d 3d
       -0.04255887 0.11983256 0.036010776 0.07674836
000380 51 08 b3 3d 52 77 19 3d 5d df 0c 3c 58 6f 94 3d
       0.087418206 0.03746731 0.008598176 0.072478
000390 f2 7f 65 bd 76 88 9a bc f5 30 f2 3d b1 40 40 be
       -0.05603022 -0.018863898 0.11825744 -0.18774678
0003a0 20 13 5e 3c 64 9e 04 3d 4e ac 75 bc dc 96 bc b9
       0.013554364 0.032377616 -0.014994694 -0.00035970553
0003b0 fc fa 35 be 3f c9 bb bd f7 0d 75 bd d6 48 cc 3d
       -0.17771524 -0.09169244 -0.05982777 0.0997483
0003c0 4c 29 2b be 87 c7 04 3d e5 4a b0 bb e1 f5 18 3e
       -0.16714972 0.032416847 -0.005380022 0.14937545
0003d0 7c 91 3e 3c 64 23 62 3d 4c ec 49 3d 8b 68 7f be
       0.011631366 0.055209532 0.049297616 -0.24942224
0003e0 7c 2b 86 bd da 84 3b 3a e3 d6 f5 bb bc a1 a8 bc
       -0.06551263 0.00071532803 -0.007502423 -0.020584933
0003f0 02 c2 26 3d 81 0e 75 be af ff 7f 3e 8d a7 aa 3d
       0.040712364 -0.23931314 0.2499988 0.08332739

fc1.bias f4 [64]
000000 35 f3 53 3e 4a 42 b0 bd bc 97 89 3b dd a0 17 be
       0.20698245 -0.08606394 0.0041989964 -0.14807458
000010 61 2a 1e bd bb cb 3e bd 5f 0e 92 bd 64 e8 bc bd
       -0.038614634 -0.04658101 -0.07131647 -0.092240125
000020 5c 3d 1f be 05 7b d7 bd 30 1a 28 3e fc 75 8e 3d
       -0.1555075 -0.10521511 0.1641624 0.069560975
000030 a5 6d bc bd 04 14 1e be bb f1 8a 3d 2e 34 05 be
       -0.092006005 -0.15437323 0.06784388 -0.13008186
000040 34 23 00 3e da d5 95 3d 33 09 ab 3d 71 14 97 bd
       0.12513429 0.073161796 0.08351364 -0.07376946
000050 48 23 04 be 58 be 20 bd 1f 83 9a 3d eb 6a 13 be
       -0.12904084 -0.039244026 0.075445406 -0.14396255
000060 ad a6 81 3d ce ed e7 bd b2 63 62 bd fc e6 de 3d
       0.06330619 -0.113246545 -0.055270858 0.108839005
000070 4b 30 d6 bc 75 47 4d be 79 a4 2e 3e 6c 77 eb 3d
       -0.026146075 -0.2004679 0.17054929 0.11497387
000080 1c e5 82 3d ab fe a3 3d b5 bd 81 bd 32 77 c3 bd
       0.063913554 0.080075584 -0.06335012 -0.09544219
000090 37 ba a4 bd 04 2f dc 3c b1 9b 36 3c bc e3 9c bd
       -0.0804333 0.026877888 0.011145518 -0.076606244
0000a0 35 dc 40 bd ad 70 49 be ff 66 15 be 74 a9 3d 3e
       -0.047085006 -0.19671889 -0.14590071 0.18521672
0000b0 70 34 a3 bd a9 c9 85 3d 73 a1 30 3e bc 98 5d 3d
       -0.07968986 0.06532604 0.17249088 0.054100737
0000c0 0f f1 38 3e c0 47 47 be 67 c3 35 3d 55 26 23 be
       0.18060707 -0.19460964 0.044375803 -0.15932591
0000d0 de 4b 48 be bc 17 25 3e a6 cb ba 3c ad 11 70 bd
       -0.19560191 0.16122335 0.022802185 -0.058610607
0000e0 3d 1c 36 bd 28 84 03 3d 66 ee 2c be 7d b0 31 3d
       -0.044460524 0.032108456 -0.16887817 0.043381203
0000f0 9e 76 e4 3c 3c 94 02 be 71 64 c4 bd 15 94 39 3e
       0.027888592 -0.1275186 -0.0958947 0.18122895

fc2.weight f4 [1, 64]
000000 6c 7a 3f 3e 51 a4 15 be 95 97 28 be c9 14 25 be
       0.18699044 -0.14613463 -0.16464074 -0.1612121
000010 95 2b 2b be 68 4c e9 3d d8 c4 39 3e 63 29 6b be
       -0.16715844 0.113915265 0.18141496 -0.22965007
000020 1c 61 2b be 05 45 ea bd 8a bc 31 3e ec 8a bd 3d
       -0.16736263 -0.11438946 0.17357078 0.09255013
000030 ba 99 c2 bd f6 23 ea bd 4d a2 31 3e d7 15 b3 bd
       -0.09501977 -0.1143264 0.17347069 -0.087444
000040 d7 c6 ab 3d 06 66 f1 3d b4 6b ff 3d 5c 4f 29 be
       0.08387535 0.117870376 0.124717146 -0.1653418
000050 de b4 05 be 99 96 ea bd db 2b 02 3e 5e a3 17 3e
       -0.13057277 -0.114545055 0.12712042 0.14808413
000060 fc 3d 1e 3e e7 11 9d bd 82 7a 08 be 3d 90 4f 3e
       0.15453333 -0.0766943 -0.13327983 0.20269866
000070 20 62 52 be 30 db a8 bd d1 87 d3 3d 77 85 07 3e
       -0.20545244 -0.08244932 0.10328639 0.13234507
000080 0c 0e ce 3d 6f 55 11 3e da f8 dc bd 3b a4 24 be
       0.10061273 0.14192747 -0.10789652 -0.16078274
000090 fd 36 4b 3e fa 27 63 3e e9 0a 5e be 65 6b 56 be
       0.19845195 0.22183219 -0.2168385 -0.20939405
0000a0 3c 76 23 be 13 6b f7 bd 1c 21 f2 bd 54 83 09 3e
       -0.15963072 -0.1208097 -0.11822721 0.13429004
0000b0 c0 dd 36 be 00 34 45 3e 0f a4 ee 3d f7 87 09 be
       -0.17858028 0.19258118 0.116523854 -0.13430773
0000c0 46 b6 9a 3d 05 a6 d2 bd 0c 84 cd bd 96 44 05 be
       0.07554297 -0.10285572 -0.100349516 -0.13014445
0000d0 58 ab b1 bd a0 bb dc 3d ce 17 2b be 05 7d d5 bd
       -0.08675259 0.10777974 -0.167083 -0.10424236
0000e0 c8 a9 4b 3e 20 76 fc 3d 83 0e e5 bd c1 2c 0b 3e
       0.19888985 0.12327218 -0.111844085 0.13591291
0000f0 0f c8 1f be 61 98 44 be 52 ce aa bd 53 25 04 3e
       -0.1560366 -0.19198753 -0.08340134 0.12904863

exp_avg f4 [11, 128]
000000 81 97 e0 b6 53 0c 6c 37 1b 4a 91 37 fc 06 95 35
       -6.6933576e-06 1.4069566e-05 1.7319855e-05 1.1103398e-06
000010 ba d4 0c 32 dc 39 8e 36 b7 28 26 37 43 b1 2e b6
       8.197441e-09 4.2386655e-06 9.903851e-06 -2.60312e-06
000020 7b c8 3d 37 58 bc 0f b7 aa cd e8 b5 b4 0a 1d 37
       1.1311956e-05 -8.567316e-06 -1.7345203e-06 9.360421e-06
000030 61 6f 01 35 03 af c5 b6 5e 3f 5f 37 34 53 de 36
       4.821832e-07 -5.8914316e-06 1.330659e-05 6.6258017e-06
000040 22 6b 68 37 83 a3 5d b6 5f 74 2c 36 13 60 a2 b6
       1.3853221e-05 -3.3026743e-06 2.5697734e-06 -4.8391607e-06
000050 e9 57 1d 37 08 1a 24 b7 e5 5e cc b6 eb f2 29 b7
       9.378397e-06 -9.781223e-06 -6.090721e-06 -1.0129744e-05
000060 e5 ce 1d 37 2c 55 48 b5 4d 6a bc b4 66 41 1a 37
       9.406101e-06 -7.462975e-07 -3.5095073e-07 9.194342e-06
000070 19 8c 29 36 56 18 0c 36 c0 52 95 b6 0e af c8 35
       2.526451e-06 2.087579e-06 -4.4501794e-06 1.4952109e-06
000080 a6 4b 19 b7 2f c3 06 35 da d7 5e 37 96 5b 0c b5
       -9.137124e-06 5.020292e-07 1.3282488e-05 -5.228734e-07
000090 ab 37 ec b6 0f 35 77 b6 50 0c 65 b7 75 8a 2e 37
       -7.0398287e-06 -3.6836752e-06 -1.365233e-05 1.0403445e-05
0000a0 d1 58 3b b6 5d 66 12 37 66 de 07 37 29 b4 40 b6
       -2.791687e-06 8.726111e-06 8.098408e-06 -2.8715097e-06
0000b0 fa 0c ef b6 14 35 56 b7 bb 01 0c b7 5c b0 13 b7
       -7.1242657e-06 -1.2767752e-05 -8.345053e-06 -8.802945e-06
0000c0 03 af 32 37 f3 05 2b 37 04 19 2c b7 e8 82 de b4
       1.0650375e-05 1.0193779e-05 -1.0257823e-05 -4.144597e-07
0000d0 e8 0c f9 36 af eb dd b6 56 f1 54 37 3e c5 88 b6
       7.4222808e-06 -6.6137504e-06 1.2692375e-05 -4.076078e-06
0000e0 0f ec b6 36 34 e3 02 b7 bd f9 54 b7 28 4e 20 b7
       5.4515035e-06 -7.801504e-06 -1.2694331e-05 -9.55494e-06
0000f0 cc 2a bf b6 7e 6f 7a 36 cb eb 55 37 88 65 d0 b5
       -5.697226e-06 3.73178e-06 1.2750689e-05 -1.5526757e-06
000100 6f bd b8 35 65 34 3d b7 c9 2f 90 b5 70 5e 10 b7
       1.3764201e-06 -1.1277477e-05 -1.0742743e-06 -8.605057e-06
000110 84 e4 1f b7 2c bc 66 37 c2 41 e8 35 63 ef 4c b7
       -9.530344e-06 1.37528805e-05 1.7304485e-06 -1.2215084e-05
000120 a3 2c 03 36 76 8e 40 b7 43 3c c0 b6 a5 ba a6 36
       1.9546503e-06 -1.1477261e-05 -5.7290613e-06 4.968914e-06
000130 d9 6d 05 b7 80 5a 23 b7 8f e2 2b b7 f1 3c ed 35
       -7.952994e-06 -9.736628e-06 -1.0245144e-05 1.7675612e-06
000140 77 a9 45 36 26 14 92 37 bb 30 4d 37 c4 2c 46 35
       2.945393e-06 1.7413939e-05 1.2230298e-05 7.382589e-07
000150 58 f5 50 b5 76 d5 a8 b5 b6 94 2e b6 9b 3b 8a 34
       -7.784306e-07 -1.2579101e-06 -2.6014582e-06 2.5747872e-07
000160 34 32 77 35 60 f3 1e 37 1b de 28 b7 e6 94 03 37
       9.2087726e-07 9.474199e-06 -1.0065293e-05 7.842877e-06
000170 2f 3e 9a 35 74 7d 01 b7 ef 40 33 b7 95 ac bd b6
       1.1491992e-06 -7.7182085e-06 -1.068435e-05 -5.65273e-06
000180 aa 41 5f 35 5d aa 04 b6 f9 ba 55 37 2b 19 a8 36
       8.316953e-07 -1.9768697e-06 1.2739322e-05 5.00972e-06
000190 0e 36 5d 37 80 40 82 36 48 2b c3 b6 fb 16 3e 37
       1.3185212e-05 3.8818107e-06 -5.8164915e-06 1.1330233e-05
0001a0 ee 63 87 36 a0 19 88 36 9f 74 4c 37 68 6d 1d b7
       4.034947e-06 4.056099e-06 1.21865005e-05 -9.383402e-06
0001b0 18 c9 2d 37 c8 f6 18 37 74 55 54 b6 d0 bd d0 b6
       1.0358424e-05 9.117364e-06 -3.1640202e-06 -6.22098e-06
0001c0 16 38 47 37 0f 91 23 b7 0d d6 51 b6 99 2c 02 35
       1.1874383e-05 -9.749331e-06 -3.126802e-06 4.849367e-07
0001d0 82 6b b4 35 4e f6 1d b6 30 b0 23 37 bc 51 ea 34
       1.3442334e-06 -2.3538191e-06 9.756579e-06 4.3645366e-07
0001e0 a2 83 46 b6 6d 92 42 b6 cb 80 20 b7 b2 03 15 37
       -2.958092e-06 -2.8993484e-06 -9.56673e-06 8.881952e-06
0001f0 c4 5e 4a b5 0e b3 0e 35 21 4c cb b6 b7 e5 25 b6
       -7.5388766e-07 5.315968e-07 -6.058734e-06 -2.4720628e-06
000200 16 9f 49 b7 75 bf de 37 c6 2e 02 38 0f 32 4b 36
       -1.2017574e-05 2.6553616e-05 3.1037976e-05 3.0278495e-06
000210 da ee 8c b5 14 3f bc 36 e5 d7 80 37 5d ae d4 b6
       -1.0500328e-06 5.61018e-06 1.5359323e-05 -6.338391e-06
000220 3a 76 89 37 98 45 69 b7 32 dc fe b6 5b 72 8e 37
       1.6386726e-05 -1.3904086e-05 -7.595424e-06 1.698097e-05
000230 21 f7 15 36 97 cd 61 b7 ae c1 c3 37 42 98 2c 37
       2.2346578e-06 -1.3458913e-05 2.3336e-05 1.0287449e-05
000240 1e 6d c2 37 07 8e 05 b5 eb fb 84 36 67 6c d1 b6
       2.3177414e-05 -4.975304e-07 3.9632337e-06 -6.241305e-06
000250 27 6c 9f 37 8f 01 53 b7 1e 2e 65 b7 10 4e 9e b7
       1.900464e-05 -1.2576943e-05 -1.3660201e-05 -1.8871418e-05
000260 de b7 98 37 3d ed c0 b5 37 78 9e 35 3e 74 83 37
       1.8205432e-05 -1.437416e-06 1.1806904e-06 1.5670546e-05
000270 09 57 cd 36 5c 38 d6 36 31 3f f5 b6 98 28 12 36
       6.1196083e-06 6.384258e-06 -7.3089254e-06 2.1779324e-06
000280 f5 1e 82 b7 f2 19 c0 35 7a 52 c6 37 3e 62 9b b6
       -1.5511623e-05 1.4312666e-06 2.3641845e-05 -4.630797e-06
000290 c6 d3 57 b7 ff 3e 1e b7 f5 85 cc b7 e6 e1 8f 37
       -1.2864306e-05 -9.432201e-06 -2.4381074e-05 1.715212e-05
0002a0 27 70 31 b5 fc 36 5a 37 fc ae 59 37 26 ad e3 b6
       -6.610084e-07 1.3006615e-05 1.297495e-05 -6.7852843e-06
0002b0 72 8d 35 b7 af 18 be b7 bf 49 79 b7 16 90 72 b7
       -1.08213735e-05 -2.266126e-05 -1.4858727e-05 -1.4457872e-05
0002c0 2d ee 9a 37 4e 48 90 37 61 44 a3 b7 ab 2a 0c 36
       1.846914e-05 1.7199807e-05 -1.9462956e-05 2.0886462e-06
0002d0 c8 df 4d 37 0b 07 1e b7 37 ca af 37 8c a1 93 b6
       1.2271055e-05 -9.419174e-06 2.095579e-05 -4.399748e-06
0002e0 81 1b fa 36 a6 36 61 b7 a2 11 a0 b7 aa a3 92 b7
       7.4537825e-06 -1.3423769e-05 -1.9081697e-05 -1.7480768e-05
0002f0 dc a2 08 b7 83 32 c4 36 1e c3 b9 37 dd 81 ef b5
       -8.14415e-06 5.8471355e-06 2.2144577e-05 -1.7844683e-06
000300 7e 4f 33 b6 a9 14 8d b7 20 f9 57 b6 d7 e0 93 b7
       -2.671935e-06 -1.681813e-05 -3.2182506e-06 -1.7628465e-05
000310 50 f4 99 b7 38 8a d3 37 f4 ca ac 36 4d 0c a8 b7
       -1.8352788e-05 2.5217523e-05 5.1496263e-06 -2.0032889e-05
000320 9d 97 51 36 04 c4 94 b7 4c f4 36 b7 47 a9 76 37
       3.1231677e-06 -1.7734252e-05 -1.0904925e-05 1.4702156e-05
000330 0c 25 58 b7 50 ee 8f b7 f2 d7 a0 b7 23 0e 4c 35
       -1.2883229e-05 -1.7157901e-05 -1.9174044e-05 7.6016494e-07
000340 78 4b 8c 36 ed e9 fc 37 68 3a c2 37 e9 e8 a8 b5
       4.181111e-06 3.0149671e-05 2.31538e-05 -1.2584761e-06
000350 da 74 5d b5 dc 63 2d 34 b4 67 0e b6 f2 25 0b b6
       -8.2498957e-07 1.6148209e-07 -2.1220012e-06 -2.0734701e-06
000360 17 d2 6c 33 67 73 69 37 0a 15 a0 b7 0d 28 65 37
       5.5139108e-08 1.3914751e-05 -1.9083283e-05 1.3658789e-05
000370 0d a4 71 36 28 5f 2f b7 ef ab 8f b7 18 3d 23 b7
       3.6007289e-06 -1.0452968e-05 -1.7126991e-05 -9.729782e-06
000380 21 8f 2f b5 e0 61 9e b5 0c a2 ac 37 bf d1 b6 36
       -6.540086e-07 -1.1800403e-06 2.0579457e-05 5.4484403e-06
000390 99 3a ac 37 d1 6a dc 36 c4 07 26 b7 b9 15 a3 37
       2.0531284e-05 6.568946e-06 -9.896179e-06 1.944123e-05
0003a0 ff 38 a7 36 0b cd 9d 36 d9 94 a4 37 cf d3 85 b7
       4.983623e-06 4.7028348e-06 1.9619636e-05 -1.5953467e-05
0003b0 11 ed 9e 37 f5 e6 90 37 52 e2 28 b5 9b 85 42 b7
       1.894546e-05 1.7273685e-05 -6.2914216e-07 -1.15944085e-05
0003c0 fd f8 d0 37 df b6 82 b7 a1 8a 61 b6 5e 50 92 b2
       2.4911476e-05 -1.5582364e-05 -3.3608305e-06 -1.7033184e-08
0003d0 d8 b1 08 36 1c 52 d1 b6 03 3c 65 37 e1 b8 6b 36
       2.0369098e-06 -6.238244e-06 1.3663436e-05 3.5125342e-06
0003e0 89 62 62 b6 de 89 1a b6 9c f6 69 b7 60 0a 66 37
       -3.373398e-06 -2.3028038e-06 -1.39453e-05 1.3711484e-05
0003f0 6e 62 1c 36 27 c5 85 36 4a a2 36 b7 63 28 ab b6
       2.3303105e-06 3.9866604e-06 -1.0885831e-05 -5.1008988e-06

exp_avg_sq f4 [11, 128]
000000 d3 58 4d 33 8c 28 52 34 e7 6e 9a 34 33 da 26 31
       4.7811067e-08 1.9572525e-07 2.8765427e-07 2.4280211e-09
000010 78 2d a1 2e 90 37 a7 32 70 e9 ba 33 0c 86 18 32
       7.329509e-11 1.9466626e-08 8.703762e-08 8.878043e-09
000020 a4 51 14 34 9d 6e a2 33 9a af 91 30 2f 98 ae 33
       1.3813275e-07 7.563833e-08 1.0600048e-09 8.1301884e-08
000030 10 4f 82 31 8d 7b e7 32 cf 2c 38 34 95 fe 84 33
       3.7924863e-09 2.6948124e-08 1.7152637e-07 6.193037e-08
000040 c9 85 43 34 55 13 8b 32 0b dc 4d 32 bc dd aa 32
       1.8209461e-07 1.6190521e-08 1.19826025e-08 1.9891438e-08
000050 93 76 ad 33 14 65 f2 33 50 ff e8 32 af 5c d1 33
       8.077509e-08 1.1287389e-07 2.7124457e-08 9.74918e-08
000060 62 0d b0 33 d8 dc bb 30 dd f5 a3 2f de 86 b5 33
       8.198073e-08 1.3668808e-09 2.9824224e-10 8.4530015e-08
000070 6f 52 72 31 9c f2 aa 30 bf 10 e4 32 4b 39 a4 31
       3.5262493e-09 1.2438082e-09 2.6550309e-08 4.7795417e-09
000080 20 3b c0 33 04 ba 15 30 00 45 41 34 c6 14 87 2f
       8.9514515e-08 5.447023e-10 1.7999628e-07 2.4571117e-10
000090 69 37 4e 33 7c 84 64 32 aa c8 51 34 3e 35 e8 33
       4.8013508e-08 1.330147e-08 1.9537643e-07 1.08130266e-07
0000a0 37 e4 81 32 cb 3a 90 33 12 b6 89 33 23 5a 8a 31
       1.5121357e-08 6.716217e-08 6.412678e-08 4.026576e-09
0000b0 74 3b 63 33 9b 91 27 34 56 07 7b 33 5e 55 b6 33
       5.290663e-08 1.5606058e-07 5.8447164e-08 8.4905636e-08
0000c0 9d a9 10 34 ff 62 c9 33 70 96 d2 33 32 0f 0d 31
       1.347275e-07 9.377799e-08 9.8062515e-08 2.0526838e-09
0000d0 be 58 6c 33 61 44 46 33 a3 ee 23 34 16 bd 96 32
       5.5028742e-08 4.6162658e-08 1.5267373e-07 1.7548285e-08
0000e0 bf 2e 0a 33 fa 8f 7c 33 89 e4 2d 34 96 81 bf 33
       3.2173144e-08 5.8804268e-08 1.6195021e-07 8.917702e-08
0000f0 df c6 10 33 91 4f 75 32 13 1c 20 34 1f 9e b3 31
       3.3708485e-08 1.4278968e-08 1.4911375e-07 5.227562e-09
000100 d6 2b b6 31 94 59 10 34 4a 95 cc 2f b3 c4 8b 33
       5.3018807e-09 1.3443633e-07 3.721346e-10 6.508471e-08
000110 4a 3a b5 33 f5 b0 46 34 d6 04 18 31 b6 2a 28 34
       8.439072e-08 1.8504564e-07 2.212166e-09 1.5661757e-07
000120 c3 30 d6 31 d3 fd 1b 34 f5 93 ec 32 82 9e d5 32
       6.2337633e-09 1.452784e-07 2.7541299e-08 2.4868545e-08
000130 40 04 a5 33 76 9f d1 33 7a 85 f7 33 3c 4b 04 32
       7.684184e-08 9.761327e-08 1.1526113e-07 7.700518e-09
000140 58 99 b1 31 fd 89 a0 34 d5 6d 12 34 70 96 c3 30
       5.168811e-09 2.9902722e-07 1.3637266e-07 1.4230874e-09
000150 10 4d 19 2f cb e0 9d 31 4c 3b 26 32 fe be 96 2f
       1.3942647e-10 4.5948574e-09 9.675954e-09 2.742055e-10
000160 a2 19 12 31 78 01 c4 33 cd cc 03 34 05 3c 51 33
       2.1260367e-09 9.1272284e-08 1.2274832e-07 4.8716192e-08
000170 62 03 46 30 61 73 9e 33 ca 14 f3 33 54 47 0d 33
       7.203679e-10 7.3784356e-08 1.1319351e-07 3.2893993e-08
000180 65 20 01 31 79 4a 06 32 57 c2 2f 34 85 f4 cb 32
       1.8790385e-09 7.81676e-09 1.6368845e-07 2.3743505e-08
000190 a7 51 37 34 e5 1f 9b 32 2b 87 f9 32 0e 6f 09 34
       1.7072908e-07 1.8058879e-08 2.9048882e-08 1.2799521e-07
0001a0 7a 42 cb 32 79 13 8a 32 6c 65 1a 34 e7 40 c0 33
       2.366254e-08 1.607417e-08 1.4379265e-07 8.9525024e-08
0001b0 d3 0f de 33 8d 67 d0 33 84 dd 7f 32 a7 60 14 33
       1.0340559e-07 9.7045906e-08 1.489332e-08 3.454684e-08
0001c0 b1 fc 0d 34 6e db df 33 7a 10 87 32 42 ae 27 2f
       1.3223577e-07 1.0424161e-07 1.5723561e-08 1.525047e-10
0001d0 bc d3 8f 31 6d a3 09 31 b6 9d e4 33 6b 40 74 2f
       4.185919e-09 2.002902e-09 1.0645765e-07 2.2214557e-10
0001e0 22 96 38 32 5d a9 26 32 56 83 dd 33 0f 11 ac 33
       1.0744346e-08 9.7009805e-09 1.0315004e-07 8.012477e-08
0001f0 a7 2c 8b 30 6b f0 5e 30 87 35 e1 32 f8 74 0e 32
       1.0126272e-09 8.1104784e-10 2.6217789e-08 8.2920835e-09
000200 1b f4 a0 32 7c 7d c1 33 e4 72 fd 33 a0 7c 00 31
       1.8737458e-08 9.010088e-08 1.1802129e-07 1.8697293e-09
000210 39 84 b4 2f 57 17 78 31 30 d1 d9 32 ea c7 a1 31
       3.283576e-10 3.6102017e-09 2.5357252e-08 4.7084443e-09
000220 ce b5 03 33 38 9b cf 32 5c 6b 0d 32 f8 e5 1a 33
       3.0666165e-08 2.4168557e-08 8.231691e-09 3.6065074e-08
000230 d7 59 00 30 5c bf e0 32 0a fc 88 33 9a 3b 92 32
       4.66938e-10 2.6164052e-08 6.378839e-08 1.702374e-08
000240 12 31 88 33 9b 69 52 2e 59 26 1d 31 0c a9 74 31
       6.341919e-08 4.784227e-11 2.2868305e-09 3.5602765e-09
000250 77 63 4c 33 ee 88 8f 32 9a f5 e3 32 10 36 4f 33
       4.7587914e-08 1.670966e-08 2.6537965e-08 4.8245113e-08
000260 e7 90 35 33 96 f6 7b 30 49 dc 12 30 a5 9b 01 33
       4.2274134e-08 9.166369e-10 5.3427535e-10 3.017671e-08
000270 21 4a ac 31 b6 6a 8b 31 a4 59 11 32 90 30 a5 30
       5.0142863e-09 4.057564e-09 8.460493e-09 1.2019132e-09
000280 5c 11 0c 33 c7 8b 01 2f d4 cd 9b 33 65 cf a5 31
       3.261208e-08 1.178214e-10 7.25519e-08 4.82571e-09
000290 14 ee b2 32 3e a1 62 32 12 aa a6 33 3f e6 1b 33
       2.0830193e-08 1.3191594e-08 7.760913e-08 3.6298157e-08
0002a0 65 fe 1b 2e be d7 9b 32 67 6b ae 32 a8 42 f6 31
       3.5468867e-11 1.8142483e-08 2.0305107e-08 7.1671202e-09
0002b0 35 2f 71 32 21 b6 8f 33 22 74 e9 32 e1 7d df 32
       1.403878e-08 6.6920855e-08 2.7177581e-08 2.601786e-08
0002c0 2f b8 4b 33 66 9f 0b 33 7f 40 48 33 d6 3e 5b 30
       4.7432135e-08 3.250843e-08 4.6624788e-08 7.976103e-10
0002d0 1d 31 9f 32 4a cb 21 32 ab a8 66 33 cb 07 ff 30
       1.853237e-08 9.417656e-09 5.370445e-08 1.8555907e-09
0002e0 18 0f ed 31 e2 e3 b1 32 c8 90 2e 33 da 57 23 33
       6.899324e-09 2.0709141e-08 4.064421e-08 3.8031295e-08
0002f0 40 1b 04 32 0f 1e 76 31 5f 08 7a 33 61 5b 9b 30
       7.689607e-09 3.5814798e-09 5.8215274e-08 1.1303706e-09
000300 72 a4 06 31 88 7a 1b 33 3e 3d 6f 30 0a 9c 31 33
       1.9593043e-09 3.620019e-08 8.7034724e-10 4.135294e-08
000310 a1 9e 3b 33 f9 bd b4 33 ad 47 89 31 44 8c 60 33
       4.3683603e-08 8.416459e-08 3.9953734e-09 5.2281635e-08
000320 9f 04 21 31 ed 70 2c 33 59 4b 64 32 72 e2 17 33
       2.343121e-09 4.0149576e-08 1.3288479e-08 3.5363378e-08
000330 7e 20 ca 32 e8 30 25 33 bd c3 4e 33 c2 d1 f3 2e
       2.353067e-08 3.8461536e-08 4.8141136e-08 1.1087621e-10
000340 ac fa ea 30 c6 43 f5 33 83 c3 98 33 3f d7 0a 2f
       1.7096986e-09 1.14210295e-07 7.113615e-08 1.2627498e-10
000350 2a f9 8d 2e 43 bc d9 2d 87 f8 30 30 8c 97 9d 30
       6.456198e-11 2.4753649e-11 6.4381606e-10 1.1466326e-09
000360 2e 6c 45 2d ff e3 c6 32 5f 44 66 33 08 51 b3 32
       1.1222174e-11 2.3153914e-08 5.361323e-08 2.0875191e-08
000370 34 bc d6 30 ab cc 6b 32 e7 33 17 33 33 74 50 32
       1.562404e-09 1.3725336e-08 3.5204632e-08 1.2133614e-08
000380 d2 1e 89 2e d4 99 53 2f cd c3 5c 33 77 1f 3a 31
       6.2355135e-11 1.9244989e-10 5.140082e-08 2.7084448e-09
000390 38 e6 50 33 bf 37 05 32 7d 43 3d 32 12 c7 55 33
       4.8638157e-08 7.754294e-09 1.1016593e-08 4.977398e-08
0003a0 02 7b 83 31 29 e2 14 31 3b 97 46 33 f5 82 06 33
       3.826586e-09 2.1665392e-09 4.623801e-08 3.131841e-08
0003b0 9d 87 4d 33 3a fa 4a 33 f5 c1 0b 2f 6f 08 92 32
       4.785362e-08 4.725937e-08 1.2710884e-10 1.7000472e-08
0003c0 c3 6a bb 33 ba e8 05 33 32 9a f5 30 da 0f 5f 2f
       8.727286e-08 3.117814e-08 1.7869921e-09 2.0287363e-10
0003d0 8e 19 a1 30 c6 42 a5 31 20 63 b0 32 af f2 7e 31
       1.1721555e-09 4.8097233e-09 2.0534173e-08 3.7099814e-09
0003e0 49 27 7f 30 9d 4f a5 2f 1c 22 ca 32 bd 0c c0 32
       9.2824287e-10 3.0069894e-10 2.3531406e-08 2.2357534e-08
0003f0 2a c0 79 30 4e 7e 22 31 78 18 69 32 86 07 98 31
       9.0858754e-10 2.3645899e-09 1.35679485e-08 4.4246375e-09

exp_avg f4 [64, 128]
000000 e6 d1 8b 37 71 c8 75 38 7d 39 8e 36 77 4d f2 b7
       1.6667833e-05 5.8599227e-05 4.2386223e-06 -2.888472e-05
000010 67 b7 d8 37 ab 7e a2 37 fa 93 0d 37 98 a2 bf b7
       2.583461e-05 1.937089e-05 8.438708e-06 -2.2844688e-05
000020 ed 64 ec 37 d6 73 6f b7 35 86 6f b7 86 95 9a 37
       2.818039e-05 -1.427248e-05 -1.4276758e-05 1.8427858e-05
000030 2f 8d 89 37 5b 61 3d b8 ac 09 7b 36 ee 9e 09 b8
       1.6397416e-05 -4.515178e-05 3.7407544e-06 -3.281136e-05
000040 e8 f9 43 37 bf 93 82 36 7b ea 80 37 5d ed 21 b7
       1.1681092e-05 3.891502e-06 1.5367978e-05 -9.651613e-06
000050 79 2a bb 37 9d c4 ba 37 e9 cd f2 b7 01 4c 27 b8
       2.2311915e-05 2.2264483e-05 -2.8944532e-05 -3.9886687e-05
000060 04 1f a7 b6 e3 88 dd 35 a3 87 33 b7 6f 2b c9 37
       -4.9805985e-06 1.6505622e-06 -1.0700812e-05 2.3981293e-05
000070 2e 73 65 38 b9 9c 2c b6 a0 5f 40 37 a3 b5 dd b6
       5.4705124e-05 -2.5721222e-06 1.1466356e-05 -6.6074585e-06
000080 c0 cc dd 37 a1 02 19 b7 fc 76 28 38 86 85 ed 37
       2.6440597e-05 -9.120123e-06 4.0165134e-05 2.8314778e-05
000090 ca 95 4a b8 25 88 5a 37 dd f8 e3 36 77 fc 14 38
       -4.8300055e-05 1.3025511e-05 6.7940987e-06 3.5521076e-05
0000a0 ba 06 c8 36 09 86 9d 36 23 39 5d 38 34 48 36 36
       5.9612476e-06 4.6945684e-06 5.274372e-05 2.716214e-06
0000b0 84 21 a2 b7 c4 7a 00 b8 9a a7 89 b7 17 ce a3 b7
       -1.9327512e-05 -3.0631913e-05 -1.6409718e-05 -1.9527082e-05
0000c0 d1 fa 1a b8 b7 4d c5 35 28 fa 1a 37 87 30 ec 37
       -3.6950052e-05 1.4700262e-06 9.237359e-06 2.815599e-05
0000d0 da b3 0e 38 91 e1 ca b7 56 45 6f 37 b7 eb 16 b7
       3.4022938e-05 -2.4185314e-05 1.4261654e-05 -8.995578e-06
0000e0 7e 37 c9 36 ef 12 93 b7 d6 d2 c6 36 47 8d 24 37
       5.996727e-06 -1.7532582e-05 5.9254044e-06 9.808055e-06
0000f0 d2 53 98 36 b6 02 a9 37 7b 3c c1 37 8c 74 19 36
       4.539711e-06 2.0147632e-05 2.3035556e-05 2.2866616e-06
000100 3f 63 3e 36 97 0e 85 37 43 24 de b7 83 64 57 35
       2.8369975e-06 1.586163e-05 -2.6481348e-05 8.0240005e-07
000110 d9 1e e6 b7 48 5f 41 38 8e 11 f6 36 ad cf fa b4
       -2.7432501e-05 4.6103523e-05 7.333415e-06 -4.6717233e-07
000120 d0 c8 00 b7 6f 01 c2 b7 4e a6 3d b8 1c 05 dd 36
       -7.67615e-06 -2.312727e-05 -4.5215995e-05 6.586908e-06
000130 05 68 f2 36 dd 27 85 b8 f6 35 9e b5 5b dc 0d b7
       7.2242715e-06 -6.349359e-05 -1.1787622e-06 -8.45556e-06
000140 51 15 6c 37 7f 00 78 38 50 0e 96 37 c4 5b 82 b5
       1.4071659e-05 5.912827e-05 1.7888058e-05 -9.712462e-07
000150 06 d3 d1 b7 84 1e 8b 37 5e 02 97 37 ee ce 64 37
       -2.5013007e-05 1.6584301e-05 1.8001705e-05 1.3638039e-05
000160 49 71 02 37 cc 45 16 b6 80 15 05 38 44 9f 41 37
       7.77498e-06 -2.239237e-06 3.1729694e-05 1.1540778e-05
000170 b0 cd 3c b6 1f c3 53 37 1e 62 15 b8 cb 63 7f b8
       -2.813391e-06 1.262201e-05 -3.5615747e-05 -6.0889677e-05
000180 f0 ff 88 b6 50 30 01 37 d1 7d f2 37 b8 eb 25 37
       -4.082911e-06 7.700248e-06 2.8907236e-05 9.889649e-06
000190 e3 9b 6d 37 f1 f8 d8 35 45 c3 a5 b5 c0 5b 0e 38
       1.4162596e-05 1.6165706e-06 -1.2350289e-06 3.3940887e-05
0001a0 44 d3 73 b7 dd ce 9a 37 b3 d8 78 38 66 d2 77 b8
       -1.4533118e-05 1.8454559e-05 5.9329624e-05 -5.9085338e-05
0001b0 f8 d2 0b 38 b8 f4 8b b6 a8 aa e4 37 9c 5c 87 b8
       3.3336662e-05 -4.171012e-06 2.7259186e-05 -6.4545515e-05
0001c0 84 12 2d 37 14 cf 5b 37 ed 67 25 36 2a 63 5c 37
       1.0315915e-05 1.3101631e-05 2.4647409e-06 1.313611e-05
0001d0 f5 ba 8e 35 06 fd a8 b7 fe 19 b0 b5 30 d0 bd b6
       1.0634236e-06 -2.0144984e-05 -1.3120587e-06 -5.656875e-06
0001e0 4d 85 c8 b7 b8 dd b9 b7 35 3f c8 36 99 8f ed b4
       -2.3903931e-05 -2.2156964e-05 5.9678227e-06 -4.424917e-07
0001f0 2f ff af 36 86 11 1c b6 63 52 3f 36 19 ae 67 37
       5.2451137e-06 -2.3256011e-06 2.8509173e-06 1.3809208e-05
000200 f6 a1 cd b7 47 88 b1 b8 db cf ad b6 11 48 30 38
       -2.4513323e-05 -8.465401e-05 -5.1799993e-06 4.2028787e-05
000210 6d 2b 19 b8 c1 dd e9 b7 98 af 2a b7 ec 46 05 38
       -3.6518486e-05 -2.7879027e-05 -1.0173673e-05 3.1775722e-05
000220 42 17 2a b8 0d f1 ac 37 45 ce ac 37 36 c3 e0 b7
       -4.055282e-05 2.0616246e-05 2.060005e-05 -2.6793783e-05
000230 ea d5 c0 b7 a6 84 89 38 3a bf a0 b6 8a c7 4a 38
       -2.2987795e-05 6.557377e-05 -4.7906333e-06 4.834639e-05
000240 8d b1 82 b7 72 69 ca b6 b6 e7 ae b7 02 5e 71 37
       -1.5579886e-05 -6.0323446e-06 -2.0850315e-05 1.4386607e-05
000250 2e 05 07 b8 43 10 0b b8 52 4b 32 38 1c 6a 74 38
       -3.2191332e-05 -3.3155327e-05 4.2508655e-05 5.8272955e-05
000260 63 a3 07 37 04 4d 0c b6 e4 10 78 37 d8 96 0e b8
       8.0846685e-06 -2.0906455e-06 1.4785885e-05 -3.3995922e-05
000270 53 7c a6 b8 15 05 86 36 44 9e 93 b7 f0 3d 21 37
       -7.938654e-05 3.994103e-06 -1.7597464e-05 9.610769e-06
000280 9b 00 23 b8 eb 2c 5d 37 23 89 71 b8 b3 f1 28 b8
       -3.8862792e-05 1.3183085e-05 -5.7586596e-05 -4.027942e-05
000290 d3 d7 91 38 1b 91 a6 b7 95 a4 30 b7 d1 f0 55 b8
       6.954339e-05 -1.9856312e-05 -1.0528737e-05 -5.1007435e-05
0002a0 a9 56 18 b7 3d 60 aa b6 f0 59 9f b8 9d 8b 7f b6
       -9.080083e-06 -5.0775984e-06 -7.598463e-05 -3.8079227e-06
0002b0 9c 32 ed 37 46 26 3c 38 0f fd c4 37 35 cf ee 37
       2.8276168e-05 4.4858338e-05 2.348286e-05 2.84683e-05
0002c0 5b e2 64 38 32 06 0e b4 82 1e 79 b7 b9 66 30 b8
       5.4570246e-05 -1.3227034e-07 -1.484866e-05 -4.2057338e-05
0002d0 ab ef 4b b8 59 df 0f 38 a7 40 ab b7 d2 1d 58 37
       -4.862218e-05 3.4301866e-05 -2.0414895e-05 1.2881546e-05
0002e0 5a 17 ff b6 b1 a4 ca 37 b2 ff 2a b7 ef a8 7a b7
       -7.6023107e-06 2.4156967e-05 -1.0192323e-05 -1.4940494e-05
0002f0 f9 1c e5 b6 a3 c5 ef b7 25 2d 0b b8 c5 58 69 b6
       -6.8281047e-06 -2.8583052e-05 -3.3182227e-05 -3.4771376e-06
000300 eb dd 62 b6 5e ed bb b7 c3 26 25 38 e4 28 4e b5
       -3.3805798e-06 -2.240267e-05 3.9375165e-05 -7.6800484e-07
000310 3e 11 25 38 bc f7 8c b8 5e e3 2c b7 aa e5 4a b4
       3.9355124e-05 -6.721864e-05 -1.0304937e-05 -1.8896267e-07
000320 63 22 4e 37 86 f3 09 38 f1 e7 8a 38 f7 af 24 b7
       1.2286563e-05 3.2890144e-05 6.623555e-05 -9.816132e-06
000330 94 27 44 b7 f3 04 c2 38 e4 54 be 35 31 13 6a 37
       -1.1691725e-05 9.251563e-05 1.418081e-06 1.3951955e-05
000340 d7 fa a7 b7 7b 57 b3 b8 9f 01 e1 b7 f8 05 cc 35
       -2.0024758e-05 -8.55168e-05 -2.6822845e-05 1.5200922e-06
000350 f6 48 19 38 d5 54 cc b7 9b b8 e0 b7 4f 1d a6 b7
       3.6545993e-05 -2.4358198e-05 -2.6788844e-05 -1.980239e-05
000360 69 75 32 b7 26 51 83 36 cf cb 45 b8 a6 80 88 b7
       -1.0636963e-05 3.913551e-06 -4.715827e-05 -1.627237e-05
000370 47 53 97 36 91 81 a1 b7 ff 7c 51 38 1c f2 b9 38
       4.5098454e-06 -1.925303e-05 4.9945895e-05 8.866584e-05
000380 33 44 e7 36 ec 9b 4f b7 3c 19 2a b8 93 db 61 b7
       6.892276e-06 -1.2374465e-05 -4.055466e-05 -1.3462169e-05
000390 70 79 a2 b7 25 69 1f b6 47 7c 08 36 ac ef 53 b8
       -1.9368454e-05 -2.3754048e-06 2.0337918e-06 -5.0529532e-05
0003a0 12 18 b5 37 c2 42 e1 b7 69 06 b4 b8 b1 66 b3 38
       2.158809e-05 -2.6853177e-05 -8.584263e-05 8.554513e-05
0003b0 3a 9a 48 b8 dd 7d c8 36 ca b6 29 b8 0e 7e c7 38
       -4.782735e-05 5.975117e-06 -4.0462975e-05 9.512539e-05
0003c0 53 a8 7b b7 c6 f0 b3 b7 a1 05 9c b6 be e7 a5 b7
       -1.4999957e-05 -2.1450582e-05 -4.6498176e-06 -1.9777446e-05
0003d0 0d c6 b3 b5 6d 89 01 38 0c 46 5c 36 2a a5 0c 37
       -1.339418e-06 3.0883984e-05 3.2823327e-06 8.3831055e-06
0003e0 df f1 0f 38 8f ab 02 38 67 b3 1e b7 61 55 83 35
       3.4319117e-05 3.115419e-05 -9.459304e-06 9.785109e-07
0003f0 f7 39 fa b6 a2 04 4d 36 20 37 8b b6 67 45 a9 b7
       -7.4573286e-06 3.0550077e-06 -4.14894e-06 -2.0178688e-05

exp_avg_sq f4 [64, 128]
000000 97 67 ea 32 85 21 2f 35 b1 ea 05 34 17 2e 93 34
       2.7288293e-08 6.524136e-07 1.247197e-07 2.7414418e-07
000010 e3 eb 32 34 3e dd 63 35 dc 5d ac 33 c2 89 12 33
       1.6663357e-07 8.488604e-07 8.026447e-08 3.4118564e-08
000020 2f e4 f6 35 e6 40 e5 34 22 37 80 31 28 c9 fd 34
       1.8394838e-06 4.2701794e-07 3.731558e-09 4.7271283e-07
000030 ef 52 71 32 08 16 82 34 3d c7 7a 31 01 0a 6c 35
       1.4046903e-08 2.4230417e-07 3.6493042e-09 8.793141e-07
000040 ac 52 02 34 7e f8 54 32 bc 8c 1b 34 d0 83 30 33
       1.213727e-07 1.2396525e-08 1.4486699e-07 4.1098076e-08
000050 96 c0 af 35 d2 30 46 32 9b 79 88 34 32 7d 97 35
       1.3094566e-06 1.1536217e-08 2.5420454e-07 1.1286813e-06
000060 72 bb dc 32 ec 8b 04 32 7a 25 62 33 91 78 49 34
       2.5696611e-08 7.715226e-09 5.265381e-08 1.8763446e-07
000070 28 e8 dd 35 cc d0 a2 31 a8 dc 88 34 ee 82 86 33
       1.653335e-06 4.738558e-09 2.5492523e-07 6.263677e-08
000080 62 8c 0f 34 ae ed 61 32 7e 31 a6 35 81 ca f1 32
       1.3368984e-07 1.3150766e-08 1.2382368e-06 2.814818e-08
000090 1c 36 3f 35 c8 1f a4 33 c4 68 ec 32 c8 79 6f 35
       7.1231784e-07 7.642626e-08 2.7521658e-08 8.9211653e-07
0000a0 fe ed e9 32 f2 c8 b8 33 15 02 f4 35 07 14 8d 32
       2.7232996e-08 8.6047194e-08 1.8180023e-06 1.6423668e-08
0000b0 c0 3e 51 35 90 a9 b9 35 ff 84 26 33 46 d1 18 35
       7.794988e-07 1.3832923e-06 3.8770846e-08 5.6928945e-07
0000c0 62 a2 e6 33 75 e6 c8 33 c0 c4 cc 33 3e 1c 4a 35
       1.0739747e-07 9.3551456e-08 9.535279e-08 7.529196e-07
0000d0 35 20 e3 35 9d 52 0c 34 4b b1 81 34 0d e4 7c 34
       1.6922191e-06 1.306857e-07 2.415712e-07 2.3552293e-07
0000e0 88 9c 76 32 af 6e 3b 32 f1 51 55 33 f1 21 2c 32
       1.4354676e-08 1.0909999e-08 4.9667452e-08 1.0019435e-08
0000f0 bd 0c b9 33 fb 1d aa 31 63 ee b9 34 90 95 9d 32
       8.617051e-08 4.9510596e-09 3.4632384e-07 1.8345219e-08
000100 c2 47 91 33 2e d4 40 32 36 e8 08 35 c2 3c 02 35
       6.765141e-08 1.1224115e-08 5.100186e-07 4.851719e-07
000110 a3 c5 cd 35 63 a9 cf 35 71 98 8a 33 d4 ee 24 32
       1.533121e-06 1.5472e-06 6.453855e-08 9.60036e-09
000120 6f 84 de 33 d0 e9 f4 31 6e 34 b9 35 10 8f b5 31
       1.036177e-07 7.127916e-09 1.3798833e-06 5.2840576e-09
000130 8c fd 9e 33 4c 41 83 36 05 d0 43 33 97 6a 21 34
       7.403568e-08 3.911706e-06 4.5591168e-08 1.503307e-07
000140 db 70 f8 33 a6 0a af 36 ca 1d ee 34 19 71 61 31
       1.1568928e-07 5.216646e-06 4.435263e-07 3.2806098e-09
000150 f6 3e 1f 35 26 06 3e 32 6a 01 c6 32 bc cf 4c 32
       5.9323736e-07 1.1060854e-08 2.3050877e-08 1.1921596e-08
000160 ba 97 1f 33 0a b2 2c 33 d9 66 e2 34 cd f3 8c 33
       3.7158067e-08 4.0208796e-08 4.2170612e-07 6.563605e-08
000170 28 fe 9c 33 63 38 b5 33 e3 63 9b 35 b8 91 0d 36
       7.310547e-08 8.438726e-08 1.1577471e-06 2.1095457e-06
000180 90 22 1f 33 43 0f ca 32 68 2d 40 35 a0 9e 53 33
       3.7051507e-08 2.3522835e-08 7.159165e-07 4.9271534e-08
000190 53 92 5a 34 20 77 8c 32 e9 11 e4 34 34 42 a8 35
       2.0356065e-07 1.6352317e-08 4.248134e-07 1.2536243e-06
0001a0 ae eb 2d 32 4d 9b 04 35 d1 85 56 36 a6 59 fa 35
       1.0123513e-08 4.9399824e-07 3.1966376e-06 1.8652543e-06
0001b0 24 fa 54 35 49 e2 54 34 59 d4 a4 32 d1 9a 57 36
       7.9340157e-07 1.982636e-07 1.9188677e-08 3.2127612e-06
0001c0 ef 89 87 33 c5 7a 02 34 35 3f 5b 34 0c ee c2 34
       6.311517e-08 1.2151857e-07 2.0418959e-07 3.6308518e-07
0001d0 65 aa 4f 31 fb ab 6e 35 0f 52 bc 33 31 5b 84 34
       3.0219323e-09 8.8912174e-07 8.7693586e-08 2.4653266e-07
0001e0 18 c1 65 34 67 58 3e 34 ec 8f 79 32 3c 63 c6 33
       2.1397534e-07 1.772729e-07 1.4526432e-08 9.238144e-08
0001f0 e9 0e ac 32 94 f8 de 31 e0 d3 c2 33 3b dd 55 34
       2.0030216e-08 6.4893104e-09 9.072369e-08 1.9917654e-07
000200 3d 89 5c 33 5c 8d ba 35 20 06 8e 34 42 50 1f 35
       5.134756e-08 1.3899221e-06 2.6454018e-07 5.9348906e-07
000210 b7 48 b2 34 00 63 ee 35 28 1e 21 34 a2 d1 ae 33
       3.320799e-07 1.7761195e-06 1.5005264e-07 8.1406384e-08
000220 6a 8c 7f 36 63 d4 66 35 98 90 d8 31 81 8d 8b 35
       3.8079693e-06 8.599074e-07 6.302866e-09 1.039749e-06
000230 5b 08 e2 32 99 07 0b 35 39 f9 be 31 45 1f 06 36
       2.6313662e-08 5.179259e-07 5.558061e-09 1.9985757e-06
000240 47 3d 80 34 ea 79 99 32 1d 38 b7 34 4f 4a bd 33
       2.3886443e-07 1.7866984e-08 3.4127234e-07 8.814515e-08
000250 79 da 42 36 68 bb ef 32 dc 34 14 35 d0 df 21 36
       2.903542e-06 2.7908484e-08 5.5211217e-07 2.4121146e-06
000260 b9 eb 5e 33 c5 87 8a 32 4e 04 ce 33 77 79 d2 34
       5.190279e-08 1.6127055e-08 9.5934055e-08 3.9203925e-07
000270 90 39 76 36 bc ad 55 32 fa b8 20 35 c9 1c 06 34
       3.6690362e-06 1.2437734e-08 5.987382e-07 1.2490194e-07
000280 cd 49 9b 34 3f 41 29 33 e0 d0 2e 36 10 7c 22 33
       2.8924697e-07 3.940772e-08 2.6049602e-06 3.78314e-08
000290 29 41 d4 35 32 fc 26 34 fc ab 87 33 2a 99 ff 35
       1.5814195e-06 1.5551703e-07 6.317711e-08 1.9043557e-06
0002a0 c5 33 93 33 64 ae 20 34 41 3c 81 36 7c 9d 2f 33
       6.854638e-08 1.4964604e-07 3.851514e-06 4.0888594e-08
0002b0 32 62 d9 35 24 9b 4c 36 e5 7b b0 33 43 e6 a2 35
       1.6196338e-06 3.0488673e-06 8.218175e-08 1.2136956e-06
0002c0 ee 1c 7a 34 d3 8a 36 34 a6 57 44 34 0c ed e6 35
       2.3293589e-07 1.7000575e-07 1.8285809e-07 1.7205325e-06
0002d0 83 ea 6b 36 0c 65 8d 34 79 0d 02 35 6d f8 f4 34
       3.5154233e-06 2.6336818e-07 4.844838e-07 4.5629295e-07
0002e0 10 50 ad 32 a3 14 63 32 4e ce 93 33 87 f2 a5 32
       2.0176259e-08 1.3217831e-08 6.8827475e-08 1.9318817e-08
0002f0 12 dd 2c 34 5d 62 00 32 22 a0 44 35 d6 c3 4b 33
       1.6099173e-07 7.472946e-09 7.3248714e-07 4.7442732e-08
000300 8e a2 35 34 b4 0b c7 32 77 62 9f 35 11 ff 90 35
       1.6916076e-07 2.3171971e-08 1.187508e-06 1.080307e-06
000310 99 3c 5f 36 61 e8 5c 36 3f 86 04 34 15 d9 85 32
       3.3264862e-06 3.2917817e-06 1.2342296e-07 1.5581955e-08
000320 d6 28 81 34 b4 99 39 32 09 9d 4b 36 d1 3c 33 32
       2.4057834e-07 1.0803365e-08 3.0340764e-06 1.0432999e-08
000330 68 ea 3e 34 ec 98 0e 37 70 28 de 33 b1 73 c0 34
       1.7780405e-07 8.4994645e-06 1.0345036e-07 3.5846963e-07
000340 2e 51 76 34 40 ab 3e 37 62 1f 88 35 77 ff 7d 31
       2.2940068e-07 1.1364755e-05 1.0141923e-06 3.696156e-09
000350 96 05 b3 35 1d 53 c9 32 34 4c 38 33 62 a2 d3 32
       1.3338165e-06 2.3437275e-08 4.2910145e-08 2.4637476e-08
000360 87 a7 d0 33 dd 55 98 33 58 8c 76 35 1d 26 21 34
       9.716228e-08 7.09367e-08 9.184637e-07 1.5008159e-07
000370 89 ba 0f 34 6e 89 58 34 71 4a 1e 36 f2 05 94 36
       1.3385774e-07 2.0166564e-07 2.3587165e-06 4.411436e-06
000380 7e 17 c2 33 f2 69 81 33 61 e9 c3 35 e9 41 9b 33
       9.038102e-08 6.026302e-08 1.4596554e-06 7.229739e-08
000390 9f ba c8 34 2a 82 0e 33 d0 b4 7d 35 1d 3b 36 36
       3.7388688e-07 3.3180335e-08 9.451296e-07 2.7154522e-06
0003a0 6d 77 ba 32 34 b4 8a 35 3b db e2 36 02 60 82 36
       2.1707558e-08 1.0334247e-06 6.7608466e-06 3.8854787e-06
0003b0 a8 b4 e5 35 e9 23 e4 34 2b 0b 37 33 f9 b8 ec 36
       1.7114407e-06 4.2494437e-07 4.2618165e-08 7.0548817e-06
0003c0 66 68 16 34 fa 1b 9f 34 97 69 02 35 aa da 5a 35
       1.4007819e-07 2.9636414e-07 4.858243e-07 8.1529527e-07
0003d0 73 29 99 31 69 4d 06 36 70 32 19 34 4a 79 08 35
       4.4575983e-09 2.0012615e-06 1.4267584e-07 5.0840447e-07
0003e0 e7 e3 e7 34 12 38 ca 34 be 22 d4 32 e6 c0 36 34
       4.3192924e-07 3.7666229e-07 2.4695847e-08 1.7020247e-07
0003f0 ee fa 11 33 7d fe 93 32 31 ed 63 34 bb 43 e4 34
       3.3988663e-08 1.722878e-08 2.1227312e-07 4.251759e-07

exp_avg f4 [64]
000000 2e fb 15 38 a3 f4 54 b8 03 9b a3 b7 3f f4 81 b7
       3.5758298e-05 -5.0772574e-05 -1.9503297e-05 -1.5491734e-05
000010 38 0b 33 b7 44 7f 66 36 10 ce ee 37 4d ba d6 b8
       -1.06718435e-05 3.434675e-06 2.8467766e-05 -0.000102390164
000020 25 bc 2a b8 2a 78 bf b9 b0 09 af 38 c1 fe c3 36
       -4.070638e-05 -0.00036519888 8.346455e-05 5.84111e-06
000030 0e b6 4e b7 97 7d 98 b9 4e 05 4f 38 f7 a7 75 b8
       -1.2320945e-05 -0.0002908527 4.9357586e-05 -5.856898e-05
000040 3e da 77 39 45 53 88 38 a5 68 d1 37 a5 0b 8e b7
       0.00023637057 6.5004955e-05 2.496347e-05 -1.6933142e-05
000050 8e 8c bf b7 3e 40 6a b7 ab 34 4d 38 93 58 83 35
       -2.2834425e-05 -1.3962444e-05 4.892486e-05 9.786039e-07
000060 25 2f 2e 38 ea 29 73 b8 61 97 92 b6 7d 7f 77 37
       4.152874e-05 -5.797475e-05 -4.368762e-06 1.475203e-05
000070 6e 22 fa b8 59 57 0a b8 29 2d 36 37 d3 61 ef 37
       -0.00011927342 -3.2983113e-05 1.085856e-05 2.8536573e-05
000080 fd 9c dc 37 14 46 11 38 29 3c 5a b8 9f 0e 99 b9
       2.6299147e-05 3.463596e-05 -5.203128e-05 -0.00029193328
000090 f4 a5 f1 34 03 28 9d 37 f0 e1 a6 b7 78 61 14 b8
       4.5010495e-07 1.873449e-05 -1.9893952e-05 -3.5376725e-05
0000a0 59 ff a6 b7 33 9e e7 b7 1e 58 46 b8 11 de 01 38
       -1.9907648e-05 -2.7611013e-05 -4.7288944e-05 3.0962812e-05
0000b0 a8 71 db b7 1e 6e 4f 39 85 c8 0d 37 08 55 2c b6
       -2.615976e-05 0.0001978208 8.450942e-06 -2.5679492e-06
0000c0 29 d4 03 38 4e d3 2b b9 9b ac 4b b8 fa 9f 7d b9
       3.1430423e-05 -0.00016386548 -4.8559723e-05 -0.00024187556
0000d0 2e af bf b6 c2 42 18 37 e3 98 66 b7 67 d4 26 b9
       -5.712637e-06 9.075449e-06 -1.3744665e-05 -0.0001591012
0000e0 23 87 65 38 23 dd cf 38 f8 6f 0b b8 c5 57 cc 39
       5.472371e-05 9.911719e-05 -3.324446e-05 0.00038975306
0000f0 b7 5b d2 b7 23 11 c5 b7 8f c7 60 b7 da 42 af 36
       -2.5076659e-05 -2.349221e-05 -1.3397904e-05 5.223189e-06
